checkpoint_actor2.pth (torch_old, 183722 bytes, 6 tensors)

fc1.weight f4 [256, 48]
00000000: deed 8cbd a30f 75bf d2a0 86bd e116 b8be
00000010: 8de1 d93f f312 803f d18c 78bd 45c7 9cbe
00000020: 092c 6dbd fc87 3ebf c6f7 ddbc d5d8 9e3e
00000030: 98b1 20be 7519 1d3f 9c3b 0e3d 4e4d cd3e
00000040: 155c 84bd d075 39bf 75aa 46bc f1a9 163e
00000050: 0d49 efbf b46d 7f3e 2288 d83c fb72 5e3e
00000060: 824b 0abd 2a69 093f dd37 31bd 6107 0b3e
00000070: 852d dabf bd9a 723f e711 533d 34ac 103e
00000080: 0ea2 9e3d c2ad f13e 0bf9 db3c 6180 ffbd
00000090: e346 0c3e ff8a 1d3f a78e c4bb 7129 9fbd
000000a0: b8b4 82bb ec10 893e 6d26 83bc afaa 0abf
000000b0: 6b75 f03f 8346 823e b101 fb3c 2e68 02bf
000000c0: f1aa 213e 25ad 28bd a460 f3bc 2be3 a03d
000000d0: 8447 393f 9144 853f 6f91 553b a1d1 d13d
000000e0: 41c5 283e 6d78 7bbd 260d 1b3c e46f 843e
000000f0: f1af 27be 7435 a43f db0b ca3d ea59 983e
00000100: d1a2 d43d e45c 233d 399e 11bd 960e 98be
00000110: 5172 91bf 38b2 7d3f d990 4cbd 7a02 afbe
00000120: 5574 3ebe 220e 03bf 5abf 94bd 00d2 f83b
00000130: 126d 45bf 9994 843f 56ae 9cbd e8a2 2bbd
00000140: 937c 6fbe e527 08bf 7ab3 a7bd a1da ad3e
00000150: 2979 223e 0e5d 963f 51bd debd 6249 8c3e
00000160: f89f 35be 81a3 3fbe 957a 26bd ee12 cc3e
00000170: a13a 843f 8804 823f 963d e4bd 826f e03e
00000180: 6354 993e c8e4 4b3c 96ff 0bbb 2053 e9bd
00000190: 174b 8bbd 41e2 c2bd a438 f5bc 4ff2 acbc
000001a0: 2162 933e 2f84 4b3d 9c41 f0b9 b9f8 db3d
000001b0: 4df9 143b d829 6fbc 9d6a ffbc 6799 cf3c
000001c0: d4f2 703e 5fde 123e bbb0 21bb 1dc6 b13d
000001d0: d44d 98bb c975 16bb 98d3 94bc 321e d03d
000001e0: 1e61 893e 7b9a 033c e952 86bd 82c8 77bd
000001f0: aade 043d 273c c4bd d241 283b 49dd abbd
00000200: 0081 5d3e 98a0 ea3d cdda 2dbd eae9 e23c
00000210: 13ed 43bd 19f6 123b 2853 9e3c 2ecf 90bd
00000220: d450 7d3e b9ee cc3d fd4b 70bd 80f6 03bd
00000230: 277b 34bc 73a5 14bd 9a4a 443d 50ff 82bd
00000240: adef 3b3b e5e6 673f d9c7 343c 6c3a 4b3e
00000250: 880a 63bf 392b f6be 2bc6 703d bdfc 073e
00000260: a173 bf3c c93e 6b3f 6adf ebbd 2ff3 b3be
00000270: dba5 eabe 1bae 58bf b2e8 0cbe dd54 a8be
00000280: 1a86 f5bb b539 613f 1ddb b2be d0f2 cfbb
00000290: c905 c0bd f072 aebf 6d08 e3be ddba 6f3c
000002a0: 0c6d cdbd 4454 ff3d 2eb0 243d c922 6fbe
000002b0: c2da 493f 70c4 04bf c5a0 8a3d 95e7 71be
000002c0: 7016 87ba 9005 ff3d f7ed 04be 31f8 adbd
000002d0: dc40 fa3e 3d14 64bf c487 c3bd bdd6 19be
000002e0: cb7f 243c 06e5 093d fcef 67be bd8a 8d3e
000002f0: 4ab7 1c3e 7e42 a0bf 00ff 9ebe 5713 873e
00000300: 2bce 2c3f 5c80 de3e 159c 333d c478 1dbe
00000310: 1cb7 04be 6690 b2be f879 e23d 9a26 38be
00000320: e195 803f 71fb a03e bae9 923e 4135 03be
00000330: 57f1 4cbe 82c0 c2be 0b06 613e fa86 b3bd
00000340: 0322 623f b8ca 553e 1364 353d 53ea 533e
00000350: 452c a6be be68 c0be 518f b13d c721 103e
00000360: 40cc 533f 7489 8c3f cad3 9a3e d3fd dc3e
00000370: 679e 713d de9f 9fbe c04a b93e 144b 0d3f
00000380: 6034 283f f429 8b3f 7b58 4cbd 10ef a6bd
00000390: a11e 463e d2c0 e8be 32f2 893b 0dfd 12be
000003a0: 3c73 463f 1f54 813f 0bb4 5c3d d27a 803d
000003b0: 2be2 c33e 5878 cdbe 3cd9 ed3d 4fc3 143c
000003c0: 4e52 d63e 36ae f83d c742 08be 3494 27bf
000003d0: 170c afbd 9727 d7be ec5b edbd 5cf4 27bf
000003e0: 1632 f43e 1fae 4d3e cf09 69be 68d9 f5be
000003f0: eef0 23bf 046f 1cbf 00f3 7dbe 94f1 f7be
-0.06881307 -0.95726985 -0.06573643 -0.35954955 1.7021958 1.0005783 -0.060681168 -0.3062078
-0.057903323 -0.74426246 -0.027095687 0.31024805 -0.15692747 0.6136697 0.034724817 0.4009804
-0.06462876 -0.7244539 -0.012125601 0.14713265 -1.8694168 0.24944192 0.0264321 0.21723549
-0.033763416 0.5367609 -0.043266166 0.13577034 -1.7045141 0.9476736 0.051530745 0.1412819
0.07745753 0.4720288 0.026852151 -0.12475658 0.13698916 0.61540216 -0.005998451 -0.07771576
-0.0039888285 0.26770723 -0.016009534 -0.5416669 1.8785833 0.2544442 0.030640455 -0.50940216
0.15787865 -0.04118075 -0.029709168 0.07855829 0.7237475 1.041155 0.0032587906 0.10245062
0.16481496 -0.061394144 0.009463584 0.25866616 -0.1637571 1.2828813 0.098655425 0.297561
0.10382617 0.03988351 -0.035551284 -0.29698628 -1.1363012 0.99100065 -0.049942825 -0.34181577
-0.18599065 -0.5119344 -0.0726306 0.0075933933 -0.77119553 1.0357848 -0.076504394 -0.041903406
-0.23387365 -0.53185874 -0.08188529 0.33955863 0.15866531 1.1747148 -0.10875953 0.27399737
-0.17736804 -0.18714716 -0.040644247 0.39858192 1.0330392 1.0157633 -0.11144559 0.43835074
0.29947194 0.012444682 -0.0021362058 -0.11392808 -0.068014316 -0.09515811 -0.029934235 -0.021111635
0.28785804 0.049686607 -0.0004582525 0.107407995 0.0022731603 -0.014597379 -0.031178767 0.025341703
0.23530132 0.1434264 -0.002467199 0.08680365 -0.0046479497 -0.002295839 -0.018167302 0.10162009
0.26831907 0.0080324365 -0.065587826 -0.060493954 0.03243891 -0.09581786 0.0025673998 -0.08391816
0.21631241 0.11456412 -0.042444993 0.02769943 -0.047833513 0.0022424518 0.019326761 -0.070707664
0.24737865 0.1000647 -0.058666218 -0.032217503 -0.01101569 -0.036290597 0.047922708 -0.06396353
0.0028676793 0.9058669 0.0110339755 0.19846505 -0.88687944 -0.4807985 0.058782738 0.13280006
0.023370566 0.9189268 -0.11517222 -0.35146472 -0.45829663 -0.84640664 -0.13760641 -0.32877246
-0.007492793 0.8797868 -0.34932795 -0.006346084 -0.093761034 -1.3628826 -0.44342366 0.014631954
-0.10030565 0.12467244 0.04020708 -0.23353113 0.7884942 -0.5186224 0.067689456 -0.23623498
-0.001030637 0.12452233 -0.12981401 -0.084946044 0.4887761 -0.8909338 -0.095473796 -0.15023322
0.010040234 0.03366568 -0.2265014 0.2764491 0.15304294 -1.2520292 -0.31053925 0.26381943
0.6750209 0.43457305 0.043850023 -0.153781 -0.12960476 -0.34875792 0.1105842 -0.17983475
1.004574 0.31441835 0.28693944 -0.12813284 -0.20013939 -0.38037497 0.21974961 -0.08765979
0.8833315 0.20878112 0.04428489 0.20694856 -0.3245565 -0.37579912 0.086699136 0.14075385
0.82733536 1.0979447 0.30239707 0.43162403 0.058988955 -0.31176656 0.36189842 0.55192685
0.6570492 1.0872178 -0.04988907 -0.08151066 0.19347622 -0.4545961 0.00420978 -0.14354344
0.77519584 1.0103797 0.05388264 0.06273426 0.3825849 -0.40130877 0.116137 0.009079768
0.41859668 0.12142603 -0.13306724 -0.65460515 -0.08547228 -0.42022392 -0.11589798 -0.6560724
0.47694463 0.20085953 -0.22757648 -0.4801743 -0.64039505 -0.61106896 -0.24799728 -0.48426497

fc1.bias f4 [256]
00000000: 233c 09be 1721 ad3c 7d6e 84be 6b6d 0cbe
00000010: 4cbf 28bf 59e8 44bf a0d0 52bf 1f1a 05bd
00000020: db0f 20be a7d6 053f 2246 39be 1cbd 6bbe
00000030: eaa8 0cbf 0327 b3be 5f1d 3bbf fbd3 86be
00000040: d91a b03e cf8e 4abf 63a9 17bf 02ce 343c
00000050: a8bd a6be 5989 5dbf e621 dcbe c7dc 31bf
00000060: 0b39 01bf 472f d8be d075 d53e 9d53 4ebf
00000070: 8e33 d6be 332a 12bf 05ae 23be c9f3 fcbe
00000080: 2576 1dbc 56c4 a6be 8c15 bebe ecb1 c7bb
00000090: b790 cfbe 66ee 22bf c167 41bf 34f0 15bf
000000a0: 9bf3 2abf d53e dabc cec0 4cbe d3f8 18bf
000000b0: 8b8f 1dbf f681 ad3d 0c40 d1be a56a 04bf
000000c0: f9e7 ddbe 7ce5 06be 2a45 4dbf 6e6a a5be
000000d0: 8fd4 69bf e189 79bf 92fe 4dbe 0734 05bf
000000e0: 4edd b3be cb75 ccbe a463 05bf affc a7be
000000f0: 3b7d 3dbf 549d 183f 96c0 edbe fd17 d3bd
00000100: 7201 c4be 66c5 a2be 510b 1cbf 7fc4 02be
00000110: 2607 3a3d 4f70 02bf ae6a d1be cf0c 3fbf
00000120: 6cf1 08bc 1e75 cabd 5956 2ebf 81b8 09bf
00000130: 5497 7fbf 1aa4 58bf 8948 adbe 728d 39bf
00000140: 6e3f 58bf 225f d6be 3bbb 60bf 6635 14bc
00000150: 3cf6 203e 97b7 e23c e9a8 3dbf 0a32 11bf
00000160: f6b7 b3bd 5049 d7bc f5a6 20bf 8c43 22bf
00000170: b678 fdbd b2e5 02bf 53e6 55bf 2eaa 17bf
00000180: 28b6 f5be 0db5 413f afb0 e7be c96b eebe
00000190: 33e9 88be ff0c 3bbf 9cab 07bf d2d4 a6be
000001a0: 9445 02bf 8c46 1abf 8989 81bf a93e 35bf
000001b0: d833 40bf 1221 49be ed21 58bf 74bc d3be
000001c0: f547 8ebe 6f73 433f 9963 e73d 4b68 973e
000001d0: fb94 8cbe 241b b5be 4c05 82bf f8b2 2bbf
000001e0: 7c8c efbe 6381 0dbf 5150 35bf 3c8c 93be
000001f0: 0127 b7be c8ba 3dbf f7d2 ecbe 462d e1be
00000200: 40ea 9bbe ae1f 27bf fa05 c33e 8e0e 29bf
00000210: dbe8 c4be c380 14bf 9a06 28bf 73b9 0cbf
00000220: 8fab 1bbf 4718 263e 8e9b 1cbf 97df dcbc
00000230: f1d4 25bf 2fc1 44bf 97fb 38bf 2867 403f
00000240: d75c 06bf a649 08bf 7ce5 9ebe c5cb 45bf
00000250: bc70 14bf a78f eabe aeba fdbe ff0a b8be
00000260: e310 febe 7645 29bf 159e 7bbf 06ae 9fbd
00000270: d9d8 cbbe 0829 a0be 76f6 07bf e39a 24bf
00000280: aab3 99be fccf a8be aad0 a4be 65b8 e8be
00000290: 8584 783e 4735 503e 66d5 33bf 1749 18bf
000002a0: 9515 5ebf 2169 e0be 6429 8ebe dd5c 1dbf
000002b0: 0a80 17bd 7e3c c43d 1996 2dbf c265 12bf
000002c0: 2197 15be ce1d cabe 67bb 0ebf 234e babe
000002d0: a4f0 7cbe c844 f63d 6180 c7be d1ed 20bf
000002e0: caea 01bf 90ac 14bf 0772 ccbe 2bc8 d1be
000002f0: ac64 0dbf 8e85 09bf 6754 773f f81e b5be
00000300: e9da f6be c5a7 9b3d 1388 76be d63c 78be
00000310: c60d 3bbf 0e4b 6ebf 620d 0dbf 0191 9ebe
00000320: f4d4 ffbe 1824 f9be 7d6c 08bf c1f3 34bf
00000330: fc18 febe 4ae6 cabe cd83 17bf 9d92 d3be
00000340: 9e9a bebe 579f 02bf 59f4 f23d ef12 0ebf
00000350: 5c69 04bf 7684 6ebe 986f 55be 6ab0 0fbf
00000360: ee36 65bf b96d a8be 4f01 05bd c87b 10bf
00000370: 46c3 c1be dd9e 5abf ee43 2ebf 8c10 9bbe
00000380: 067a f1be c0fc 0bbf 0843 62bf 9e71 00bf
00000390: 0d95 e9be ade1 64bd 3b91 f3be de2e 89be
000003a0: 1b1d 34be 7952 0f3e e00c babe 165b ecbe
000003b0: faea 14bf c981 d83e c550 fa3e 0d03 10bf
000003c0: b17b 8cbe 45e9 2ebe fd80 8dbd 4c9d 48bc
000003d0: 0065 fabb f8a8 14bf 720f ebbe 0236 70bf
000003e0: 63c0 ccbe 6659 a13e 3df1 a3be ebd1 19bf
000003f0: 8315 5fbf bb80 d2be 038c 23be 8848 9b3e
-0.13401847 0.021133943 -0.25865546 -0.13713615 -0.65916896 -0.76917034 -0.82349586 -0.032495614
-0.15631048 0.5228066 -0.1809316 -0.23021358 -0.5494524 -0.349907 -0.7309169 -0.26333603
0.34395483 -0.7912416 -0.5924284 0.011035444 -0.3256657 -0.865377 -0.42994612 -0.69477504
-0.50477666 -0.4222357 0.41691446 -0.80596334 -0.41836208 -0.5709564 -0.15984352 -0.49404743
-0.009610687 -0.32571667 -0.37125814 -0.006094208 -0.40540096 -0.6364502 -0.7554894 -0.58569646
-0.6677796 -0.026641289 -0.19995424 -0.59754676 -0.61547154 0.08472054 -0.40869176 -0.51725227
-0.43341044 -0.13173479 -0.8018366 -0.32307762 -0.91339964 -0.9747601 -0.20116642 -0.5203251
-0.3512978 -0.3993362 -0.52105165 -0.3280997 -0.7401921 0.59615064 -0.46435994 -0.1030731
-0.38282353 -0.31791228 -0.6095477 -0.1277027 0.045416974 -0.5095262 -0.40901703 -0.7462892
-0.008358341 -0.098856196 -0.68100506 -0.53797156 -0.99840283 -0.846254 -0.33844402 -0.72481453
-0.84471786 -0.41869456 -0.8778569 -0.009045934 0.15718931 0.027675433 -0.7408586 -0.5671698
-0.08775322 -0.026280075 -0.62754756 -0.6338432 -0.123765394 -0.5113174 -0.8355457 -0.5924405
-0.47990537 0.75666887 -0.45251986 -0.4656661 -0.26740417 -0.73066705 -0.5299623 -0.32584244
-0.5088742 -0.60263896 -1.0120097 -0.70798737 -0.7507911 -0.19641522 -0.84426767 -0.41354716
-0.27789274 0.7634801 0.112982936 0.29571757 -0.27457413 -0.3537227 -1.0157866 -0.6706996
-0.4678687 -0.55275553 -0.7082568 -0.28817928 -0.35771945 -0.7411313 -0.46254703 -0.43979853
-0.30452156 -0.65282714 0.38090497 -0.66037834 -0.38458905 -0.58008975 -0.65635073 -0.54970473
-0.6080865 0.16220199 -0.6117486 -0.026962085 -0.6477805 -0.76857275 -0.72258896 0.75157404
-0.5248541 -0.5323738 -0.31034458 -0.7726405 -0.5798452 -0.45812723 -0.49556488 -0.3594589
-0.4962226 -0.66121614 -0.9828809 -0.07796864 -0.3981388 -0.31281304 -0.53110445 -0.6429884
-0.30019885 -0.3297118 -0.32190448 -0.45453182 0.24269302 0.20332824 -0.70247495 -0.59486526
-0.8675168 -0.43830207 -0.27765954 -0.61469823 -0.036987342 0.095818505 -0.67807156 -0.5718652
-0.14608432 -0.39475864 -0.55754703 -0.3638774 -0.24701172 0.12024838 -0.38965133 -0.6286288
-0.50748885 -0.5807581 -0.39930746 -0.4097303 -0.5523174 -0.53719413 0.9661316 -0.3537519
-0.4821389 0.07600359 -0.24075346 -0.24241957 -0.7306789 -0.93083274 -0.55098546 -0.30970004
-0.49967158 -0.4866035 -0.5329054 -0.7068444 -0.49628437 -0.39628822 -0.5918549 -0.41322795
-0.3722734 -0.51024383 0.11863012 -0.5549764 -0.51723266 -0.23292717 -0.20843351 -0.5612856
-0.8953694 -0.32896212 -0.03247195 -0.56438875 -0.37844294 -0.85398656 -0.680724 -0.30286062
-0.4716341 -0.5468254 -0.8838353 -0.50173366 -0.4562153 -0.055879284 -0.4757174 -0.2679357
-0.17589228 0.13996305 -0.36337948 -0.46163243 -0.58171046 0.42286518 0.48889747 -0.56254655
-0.2743812 -0.17081173 -0.06909368 -0.012244534 -0.0076414347 -0.58070326 -0.4591022 -0.9383241
-0.3999053 0.31513518 -0.32019988 -0.60085934 -0.871422 -0.4111384 -0.15971379 0.30328774

fc2.weight f4 [128, 256]
00000000: e0c1 b7bd 93a0 1cbf e805 d03d 5da3 bfbd
00000010: eded 04be a653 ddbd fbf3 4abe 603e 0abe
00000020: 97b6 bb3d 127d 57bf a0f0 8bbe 5dcf 15be
00000030: 2f8d c23d 7afd 40be 1182 863d 7d43 51be
00000040: 188e c6be ac1b 263c 917f c0be 7567 2dbc
00000050: 2d7f c8bd c89d 19bd da0f e6be d207 87bd
00000060: 7ec1 f4be 9156 b4be 9e31 30be 4f46 13be
00000070: 22fe 66be e714 a73e a5b2 363d f475 c2be
00000080: 54ad 4d3e f5a1 8dbd ca10 a6be e3b8 29bc
00000090: 389a 513e 1403 01be f0ea 4ebe 9595 42be
000000a0: 96ac 28be 8401 5c3c 098f 92be f5b9 c9be
000000b0: f9ae 6abe bd45 90be a977 b4bc c4ee 45be
000000c0: c764 5fbd 0919 11be 1213 77bd 64d6 9cbd
000000d0: 6d1f 85be 36f7 80be 74dc 1ebe ea79 e5be
000000e0: 282e 4cbd 7e65 ad3d c459 a7be 7386 bb3e
000000f0: 4c7c 5fbe 67aa 383e 176e b83d eaa3 29be
00000100: f136 183e a0fc 993d 1173 64be d740 afbe
00000110: 7e47 223e f797 83be 9634 353d 991b aabd
00000120: 702c 1ebe 2605 1dbe 0e43 d83c 10b4 12be
00000130: 2e46 20be 1694 0ebe 0e3b e7bd 8938 5bbd
00000140: 1e65 b0bd 8920 ba3e af4d 73be 228b eb3d
00000150: 8d7c 8abe 7fb7 363e ba57 863b 8c57 7dbd
00000160: 9d62 ffbe 28b3 17bd 79be a0be 4950 5abe
00000170: 7c91 a8be f240 1fbd 66a8 9abe 88c9 a33d
00000180: 8c1d 0abd 309b 6a3d ad27 9cbe b889 25be
00000190: 10ca 80bd 7ff7 debe fb8e 80be affa 7c3d
000001a0: 57c8 cabd 4990 743c b595 0abe c86b d73d
000001b0: 0359 e83d 2098 06bf 848f 7c3b 803a 37bd
000001c0: b2fe a1be d365 a4be 31c0 bcbe 3ca8 f5be
000001d0: c042 1ebf 2b45 88bd 8d22 f9be a56e 553c
000001e0: 0ac3 d7be 73a4 9bbe 24fd f2bc b8c8 9b3d
000001f0: 988c 933d 90e5 e73d 6b3f 2d3e 3d7c 2a3e
00000200: 2d90 b43d 6ba9 25be 1841 863e 7084 c7be
00000210: 3c0c 83be fdf5 84be 1694 a2be 2a65 95bd
00000220: cf98 17be c3b6 53be 7f25 873a 4585 303c
00000230: 3ff0 09be d83c 473d f82c f13d 3bb7 093d
00000240: 10ba bdbe 56a0 683d bc9f df3d d6fb e2be
00000250: 4504 2bbe 9e74 1dbc f4f3 04be cf25 13be
00000260: 9d9f afbc d732 1ebc 1038 51be 4ab4 aebc
00000270: 8b67 bbbe 258e 3bbd da27 c4bd 5ad5 3f3e
00000280: 26ec bbbe f2b6 dfbe 6a04 73be 7591 54be
00000290: 09ca a1be bc51 033c 8382 313d 35fb 97bc
000002a0: 042c 173d d6fb 2bbe 6d6e 00be e144 bfbd
000002b0: adb0 973e c714 6cbe ce16 72bc 30be 8ebd
000002c0: 452e 78be f8da a5be 236f 52bd 1ce1 28be
000002d0: c6e0 92be bce0 26bd b1eb e3bd ec5d 66be
000002e0: 3265 4abd a222 72be 6e34 233c 83b3 733c
000002f0: dd9e 01be 1b02 81be d2e7 0fbf fa9f 10be
00000300: 7e99 25be 1aa7 eabd f2f4 8ebd e249 82be
00000310: 27fd 7cbe d09b 113e 4204 803e 21c7 83bd
00000320: c484 4abe de18 b8be 3b26 2e3d a3c0 1b3d
00000330: ef93 41be 836b c7be 6edf 92be 179c 9bbd
00000340: fb8b 313d 22f1 82be 9d15 f8bb 6fec b63d
00000350: e216 43bd 123d 7dbd 160e d23d 49de aebe
00000360: e72f 0cbe 9044 a93d 00a0 d5bd cee3 e4be
00000370: 4169 d63e 9d85 2d3d f7cb aebd 3bd2 023c
00000380: d7d5 fa3b b242 96be 3ff4 983d 33c7 76be
00000390: 1ba2 a83d 6db0 04bf a2ef 323e ebd2 17be
000003a0: b6c0 abbe b553 103d 8781 d1bd bf28 9a3e
000003b0: 694c 4b3c 2a7c c4be 5129 e63d 88af 87be
000003c0: 69c0 30be a649 01bf b344 a7bd 46d6 adbe
000003d0: e360 c3be ab93 d2bd de91 00bb a309 b33c
000003e0: ca85 30be 9a15 57bd efd2 07be 2e9b f1bd
000003f0: 8f38 723e 77b8 4e3e e25d 75be 9542 16bc
-0.089725256 -0.61182517 0.101573765 -0.09357331 -0.12981386 -0.1080697 -0.19819634 -0.13500357
0.091656856 -0.8417522 -0.2733202 -0.14629884 0.09499585 -0.18846694 0.06567777 -0.20435901
-0.38780284 0.010138433 -0.37597325 -0.010583748 -0.09789882 -0.037503988 -0.4493397 -0.065932885
-0.47803873 -0.35222295 -0.17206427 -0.1438229 -0.22557881 0.32633135 0.044603962 -0.37980616
0.2008565 -0.069156565 -0.32434684 -0.010359022 0.20468986 -0.1259883 -0.20206809 -0.19002374
-0.16472086 0.013428096 -0.28624752 -0.39399686 -0.2291831 -0.28178206 -0.022029715 -0.19329363
-0.05453947 -0.14169706 -0.06032092 -0.07658079 -0.26000538 -0.25188607 -0.15513784 -0.44819576
-0.049848706 0.08466624 -0.32685673 0.36626014 -0.21824759 0.18033753 0.09005373 -0.16566435
0.14864708 0.075188875 -0.2230952 -0.34229156 0.15847585 -0.25701877 0.044239603 -0.08306045
-0.15446639 -0.15333995 0.026399162 -0.14326501 -0.15651771 -0.13923678 -0.11290561 -0.053520713
-0.086130366 0.36352947 -0.23760103 0.11501147 -0.2704815 0.17843436 0.0040998133 -0.06185107
-0.49879923 -0.03703609 -0.3139532 -0.21319689 -0.32923496 -0.038880296 -0.30206603 0.079974234
-0.033719584 0.057276905 -0.3049902 -0.16165817 -0.0628854 -0.435482 -0.25109085 0.061762508
-0.09901493 0.014926978 -0.13533671 0.105186045 0.11345103 -0.52575874 0.003853769 -0.044733524
-0.3163963 -0.32108936 -0.3686538 -0.47979915 -0.618206 -0.06653818 -0.48659173 0.013026868
-0.4214099 -0.30398902 -0.029661722 0.076066434 0.072045505 0.113230824 0.16918723 0.16648956
0.08816562 -0.16177909 0.26221538 -0.3896823 -0.25595272 -0.25968924 -0.31753606 -0.07294686
-0.14804386 -0.20675187 0.0010310857 0.010773961 -0.13470553 0.04864201 0.11776155 0.033622008
-0.37056017 0.056793533 0.10919139 -0.4433276 -0.16700847 -0.009610323 -0.12983686 -0.14369892
-0.021438414 -0.009655676 -0.20431542 -0.021326203 -0.36602435 -0.045789856 -0.095779136 0.18733731
-0.36703604 -0.43694264 -0.23732153 -0.20758612 -0.31599453 0.008015092 0.043337356 -0.018552402
0.03690721 -0.16795287 -0.12542124 -0.093393095 0.2962698 -0.23054801 -0.014775945 -0.06969869
-0.242364 -0.32393622 -0.05137552 -0.16492122 -0.28687114 -0.040741667 -0.11128939 -0.22496766
-0.049412914 -0.23646024 0.009961231 0.014874342 -0.12658258 -0.2519692 -0.56213105 -0.14123526
-0.16171834 -0.11457653 -0.06980313 -0.25446993 -0.24705945 0.14219594 0.25003248 -0.06434465
-0.19777209 -0.35956472 0.04251693 0.03802551 -0.18904088 -0.38949212 -0.28686088 -0.07598131
0.043346386 -0.25574595 -0.007570936 0.08931815 -0.047629245 -0.06182582 0.10256593 -0.34153965
-0.13690148 0.082650304 -0.10430908 -0.4470505 0.41877177 0.04236375 -0.08534997 0.007984693
0.007654886 -0.2934776 0.07468461 -0.24099426 0.08234044 -0.51831704 0.17474225 -0.14826553
-0.33545464 0.03523608 -0.102297835 0.30109212 0.012408354 -0.3837598 0.11238349 -0.26501107
-0.17260899 -0.50503004 -0.081674 -0.3395254 -0.38159856 -0.10282072 -0.0019618194 0.021855181
-0.17238536 -0.052510835 -0.13264059 -0.11797176 0.23654388 0.20187555 -0.23961595 -0.009171148

fc2.bias f4 [128]
00000000: 2d43 a4be 1d06 13bf ea75 8ebf eca2 8dbe
00000010: 929c 97be 68d3 12bf 7a53 cabe 2c93 f5be
00000020: e735 e1bd 2b19 04bf c35e 4dbe 81ae a9be
00000030: 8388 3c3d 1198 57bf 139a a93e f769 9fbe
00000040: c372 b3be bede 483e 67f0 07be 5884 a9bd
00000050: 1c18 d4be 9892 bcbe 4ec1 44be ed05 99bd
00000060: de59 a43d 8d49 d3bd 55f4 3b3d d764 b2be
00000070: b9eb e1be 3f8e 1fbe 84fc 89be 7028 f6bd
00000080: 6217 1bbe 2db5 e23e e238 13bf fe6f dcbd
00000090: ceed bfbd 3df5 00bf ca0b 21be 54c1 a8bd
000000a0: f220 31bf 1cdf 35bb ad1f d6be 0903 7cbe
000000b0: 3a5c 25be aaeb afbe ac3b 8fbf 1656 873e
000000c0: d4b2 d7bd 7e78 e1be b1b0 2ebf 4a2c 87bf
000000d0: 6b25 1dbe 433d aa3b 0f38 d7be df9f 9dbe
000000e0: fcdc c9be 2a76 993d 89f5 00be 6659 bcbe
000000f0: a608 753e 80ab 5c3e 777a 1dbe ba63 9cbe
00000100: 859b 30be b999 22bf 270c 093f 33bb 27be
00000110: 1fdf 86bf 63a9 01be b176 de3e d8e2 3d3e
00000120: 23be 56be 2be3 b4be 5712 26be 4841 33be
00000130: 9eb2 2dbf 7db7 0f3d 9d52 aebd 06d5 15bf
00000140: 2c78 92be 131e 25bc 3e14 00be 9025 81be
00000150: 49ff 82be 7745 fdbd 19c5 27bf 78ba 35be
00000160: 8574 bbbd ec58 b6be 6713 5a3e ba3e dfbe
00000170: f553 0e3e 7e26 10bf b184 0a3a a5a8 c4be
00000180: 7866 43bf 5a98 94bf 2fc1 7bbe 0952 c7be
00000190: 09b9 81be c38a b1be 7df1 34bf 4158 3ebe
000001a0: cdab e7bd 6d9b 26bf 6cc7 9b3b 2f51 c2bd
000001b0: 5661 d1be fd48 e8be 7124 813e 4dd1 95be
000001c0: 83a7 fabd 6e1a 48bf 17ae dabe 24b8 1fbd
000001d0: 9779 f0bd 2f8a 09bf d9b5 25bf c17c cfbd
000001e0: 6429 3abf 4b99 e6be 559f 16be 617d a8be
000001f0: d8b4 8abe d0e3 a0bd 119c 033d 131a abbe
-0.320825 -0.57431203 -1.1129735 -0.27663362 -0.2961164 -0.5735383 -0.39516813 -0.47963846
-0.10996609 -0.51600903 -0.2005568 -0.33140948 0.046028625 -0.8421641 0.33125362 -0.31135532
-0.35048494 0.1961622 -0.132753 -0.08277196 -0.41424644 -0.36830592 -0.19214365 -0.074718334
0.08024953 -0.10316763 0.04588731 -0.3484256 -0.44125155 -0.15581606 -0.26950467 -0.120194316
-0.15145639 0.4427885 -0.5750867 -0.10763548 -0.093715295 -0.50374204 -0.15727153 -0.082399994
-0.69190896 -0.0027751392 -0.41821042 -0.24610533 -0.16148463 -0.34359485 -1.1190085 0.26432866
-0.10532156 -0.4403724 -0.6823836 -1.0560391 -0.15346305 0.0051952912 -0.42034957 -0.30786034
-0.3942641 0.07493241 -0.12593664 -0.36786956 0.2392908 0.21549797 -0.15378748 -0.30544835
-0.17246826 -0.6351581 0.5353417 -0.16380005 -1.0536841 -0.12662272 0.4344993 0.18543565
-0.20970969 -0.35329565 -0.16217934 -0.17505372 -0.67850673 0.035087097 -0.08511851 -0.5852817
-0.2860731 -0.010077971 -0.12507722 -0.2522397 -0.25585392 -0.12366765 -0.6553512 -0.17746913
-0.09153084 -0.35614717 0.21296464 -0.43602544 0.13899215 -0.56308734 0.0005284055 -0.38409916
-0.7632823 -1.1608994 -0.24585412 -0.38929775 -0.25336483 -0.3467618 -0.7068098 -0.18588354
-0.11312065 -0.6508091 0.0047539975 -0.09488141 -0.40894574 -0.45368186 0.25223115 -0.29261246
-0.122389816 -0.7816533 -0.42710945 -0.03899397 -0.117419414 -0.53726476 -0.647306 -0.10131217
-0.7271941 -0.45038828 -0.14709218 -0.32908157 -0.27091098 -0.07855952 0.03213126 -0.3341833

fc3.weight f4 [2, 128]
00000000: c760 e53e a612 bc3e 9df0 dfbe 0726 16bf
00000010: d715 4b3c 826b 06bd e873 fe3d e4a5 90be
00000020: eb3d dfba 0e40 c03d fda4 e33c fde7 b03d
00000030: 0ccd 98be ac40 5a3e f84d 99bc dee4 733c
00000040: 9422 453d 768e 693e 8dac 92be 6082 a8bd
00000050: 5e8c 163c 5d49 dfbe 4a46 bebc 1bc3 1a3c
00000060: d90b 953d cd1e a63b 729d ff3e 07bb b13d
00000070: 9e4f 173c 9347 a03e dedc 9abe 7351 98be
00000080: f13c a73d 4006 963e 3958 10be e2a7 90be
00000090: e7c4 393c ac86 f2bc 8d3d 123d 0457 4abd
000000a0: 7caa d23e 52ab 05bd 114a 193d 3cbc 883c
000000b0: 96d2 103e 5135 653e 86ee c83d 7709 493e
000000c0: 3fba 0bbe 3728 b73d 3e16 94bd be22 03bf
000000d0: cdc0 32bd 308f ce3e f38b dc3d ad47 923d
000000e0: f826 6fbd c858 143f b6a9 92bc 499a cdbe
000000f0: 2de2 cabd 664d dabd 9faa 5f3b 922f ad3b
00000100: bbe6 c13c a718 813e b696 0d3f 1a6b 8dbe
00000110: aefd 03bf 3275 4d3c d005 c93e dbb3 cd3e
00000120: a688 c13c c49f bcbe 6b32 e6be 49de ecbc
00000130: b252 09bf b19d e43d 432e ac3e 393d 253e
00000140: 60e1 633d 3006 a93c 8f6a e1bd 14cb 35bd
00000150: 692f 82bd c6d0 4e3e 777b 52bd e53e a53d
00000160: ecf1 533d f8c1 543d 56cc 263e d86a 433e
00000170: 7f68 923d 7ae2 12bd a4fe cbbe 9756 30be
00000180: 8282 333e 8de8 a73d 936a 8e3c 57af d3bd
00000190: 3d46 873e 2280 bcbe d682 d33e baaf 22bc
000001a0: 75a7 acbb 406b 61be 7fd6 103c 1d68 8f3e
000001b0: 8c83 d4ba 2652 02be bf1b debe ebbd 4cbe
000001c0: 4955 7fbe 01cf cb3e a105 b13c b6c7 893c
000001d0: de86 4fbd 01ed 123e 93ca c5be 8046 c93c
000001e0: 7e0e a23d 8fb3 07be 6dce 75bc e7c0 483d
000001f0: db1b 193d 5f3c edbe 2aa2 c33e b403 e9bc
00000200: 0707 cd3a 2bb7 c03d 6cd9 2fbf a00a 0abe
00000210: a62e 493f aeb2 943e 9ee3 0a3e b515 e73e
00000220: d985 a93c 2859 b4bd 2106 10be 3849 0f3f
00000230: 0e52 1abf b393 623e d18e fdbe ea9b 26be
00000240: 9a75 9abf b5ac 3abf 0081 83be 2fb1 d5bd
00000250: 1b1d d4be e9d7 edbd 44d7 16be 1a50 90bc
00000260: d14b ccbe ead2 7abe cf33 f53d 36e7 973f
00000270: 2150 ea3e 8ffb 873e 7fd2 683e cf3a 7b3e
00000280: ca36 afbd 9edf 103d 1c4c 013e ac14 b63c
00000290: 882b ac3c 0d49 6abe 3f40 693b 507c 04be
000002a0: 6c65 7e3e 5ae9 ddbd 6e34 763e d3c7 abbd
000002b0: 2b99 423e 33ac ab3c e7d6 6f3d 6b8e 653e
000002c0: bd73 5bbd 8212 463f 4fba 50bd 963e 2abe
000002d0: 6efb 913c fa72 103e e397 823d 1555 143f
000002e0: 6810 f93e 949d 16be ad04 50bd 1c41 28bf
000002f0: 878a e4be 9166 bd3e 110b 90bc aad9 99be
00000300: b31a 873b a458 013f 4877 803e db43 a63d
00000310: 1d9a 8fbf d40f 86bd cf4a c33d 7d3c 80be
00000320: 500b 10bf d014 73be aa8c fe3d d953 2b3f
00000330: 6f46 d9bd 9151 b7be 18b8 273e 086b e0be
00000340: 9ea8 cf3e 88cc 19bc 5c45 1cbe 479d 0fbd
00000350: 9556 96bd 956d 5a3e 946b ccbe 2c8f 863c
00000360: ca76 6ebe e097 1b3e f388 09bf e847 2f3d
00000370: 37a7 d83e 93ad 093f 2242 55be 3444 983e
00000380: 3151 debe e1f3 ec3e 6fa9 a8bd 4a3c de3b
00000390: 8dc6 7cbe 8d00 8b3e 117f 553e 3022 37be
000003a0: dee7 653c 496f 0f3f 767f 1fbd 6ee2 b6bc
000003b0: 389c a43e fe11 913e f701 a23e 8678 40bd
000003c0: d017 cfbd 47a1 51bf 3ea4 0c3e b9da 1abd
000003d0: 6015 353f 08aa db3e f237 18bf 1fe8 29bd
000003e0: 4cba a43e 57e5 2fbf fa5c f5bc d64e 41be
000003f0: 7644 0ebe 023b fcbe 854b 273f 5470 82be
0.44800398 0.36732978 -0.4373826 -0.58651775 0.012395344 -0.03281737 0.12424451 -0.28251565
-0.0017032003 0.093872175 0.027788633 0.08637998 -0.29843938 0.21313733 -0.018713936 0.014886109
0.04812868 0.22808251 -0.2864727 -0.08227992 0.00918874 -0.4361066 -0.023226876 0.009445931
0.072776504 0.0050695897 0.4992481 0.08678251 0.009235291 0.31304607 -0.30246633 -0.2974964
0.081659205 0.29301643 -0.14096154 -0.28253084 0.011338449 -0.029605232 0.03570323 -0.04939939
0.41145694 -0.032634087 0.03742415 0.01669132 0.14142832 0.2238362 0.0981112 0.19632517
-0.13645266 0.08943217 -0.07230805 -0.5122489 -0.0436409 0.40343618 0.10768881 0.07142577
-0.058386773 0.5794797 -0.01790319 -0.40156773 -0.09906421 -0.10659294 0.0034128798 0.005285212
0.023669591 0.2521412 0.5530809 -0.27620775 -0.5155896 0.012540149 0.39262247 0.4017628
0.02362473 -0.36840641 -0.4496034 -0.028914588 -0.5364181 0.1116289 0.33629045 0.16136636
0.055634856 0.020632833 -0.110066526 -0.044383124 -0.06356699 0.20196828 -0.051387277 0.08068637
0.051744387 0.051942796 0.16288885 0.19083726 0.07148837 -0.035860516 -0.39842713 -0.17220531
0.17530254 0.081986524 0.017384803 -0.10336178 0.26420775 -0.36816508 0.41310757 -0.009929592
-0.005268986 -0.22013569 0.008840202 0.2800912 -0.001621352 -0.1272665 -0.43380544 -0.19994323
-0.24934877 0.3980637 0.02160913 0.016818862 -0.05066573 0.14348222 -0.38631114 0.02456975
0.079129204 -0.1325209 -0.015002829 0.04901209 0.03738008 -0.46335122 0.3820966 -0.028444149
0.0015642353 0.094099365 -0.68691134 -0.13480616 0.78586805 0.29042572 0.13563392 0.4513375
0.020693706 -0.08806068 -0.14064838 0.559711 -0.60281456 0.22126655 -0.49523023 -0.16270414
-1.2067139 -0.7291978 -0.25684357 -0.10434186 -0.41428456 -0.11613447 -0.14730555 -0.01761632
-0.39901593 -0.2449452 0.11972772 1.1867435 0.45764259 0.2655911 0.22736548 0.24534152
-0.08555372 0.035369508 0.1262669 0.022226654 0.021016851 -0.22879429 0.0035591272 -0.12938046
0.24843377 -0.10835524 0.24043438 -0.08387723 0.19003741 0.020956134 0.058554556 0.2241761
-0.053577174 0.7737199 -0.050958928 -0.16625437 0.017820086 0.1410636 0.06376626 0.57942325
0.4864533 -0.14708549 -0.05078571 -0.6572435 -0.44636938 0.36992314 -0.017583402 -0.30048877
0.004123056 0.5052588 0.25091004 0.08118411 -1.1218907 -0.06545988 0.09535753 -0.2504615
-0.5626726 -0.23738408 0.12429173 0.66924816 -0.10609137 -0.35804418 0.1637882 -0.43831658
0.40558332 -0.009387143 -0.15260834 -0.0350621 -0.07340733 0.21330865 -0.39925826 0.016425692
-0.23287502 0.15194654 -0.5372459 0.042793185 0.42315075 0.5378048 -0.20826009 0.29739535
-0.4342132 0.46279815 -0.08235442 0.0067820894 -0.24685116 0.27148858 0.20849253 -0.17884135
0.014032332 0.5602918 -0.038939916 -0.022324767 0.32150435 0.2833404 0.31642124 -0.04698994
-0.10111964 -0.81886715 0.13734528 -0.037806246 0.7073574 0.4290316 -0.59460366 -0.041481134
0.32173383 -0.6870932 -0.029951561 -0.1887773 -0.13893303 -0.4926377 0.6534961 -0.25476325

fc3.bias f4 [2]
00000000: c6aa d8bd a77a 23c0
-0.105794474 -2.554361
