checkpoint_actor1.pth (torch_old, 183722 bytes, 6 tensors)

fc1.weight f4 [256, 48]
000000 9a 9f 4c be c1 64 c1 3e 0b e7 fd 3c 43 fb 8b 3d
       -0.19982758 0.37772182 0.030993959 0.06835034
000010 40 1f df bc 6f a5 2e bf c9 a9 13 3d 79 3b f9 3d
       -0.02723658 -0.6822118 0.03605059 0.12169547
000020 ed e0 3e be 67 da b9 3e 52 5f db 3c b1 42 e8 bd
       -0.1864049 0.3629944 0.02677885 -0.113408454
000030 2f 68 f2 3d 73 96 45 bf 82 74 b5 3d 0a c5 b9 bc
       0.11836278 -0.7718269 0.08860113 -0.022676963
000040 98 70 0c be 40 cb 77 3e 9a 22 a7 be 0b ff 18 be
       -0.13714826 0.24198627 -0.32643586 -0.14941041
000050 ed cf aa 3e f2 10 c3 bf c0 64 93 be 83 6a a2 bd
       0.3336176 -1.5239546 -0.28787804 -0.07930472
000060 55 b5 98 3f 58 07 21 3e 71 be 93 be e2 25 34 3f
       1.1930338 0.15725458 -0.28856233 0.70370305
000070 da 21 cc 3c f1 2f 3c bf 54 6a 46 be 16 8f 35 3f
       0.024918485 -0.7351065 -0.19376498 0.70921457
000080 c4 08 9b 3f a8 c9 91 3e 0e 19 e3 3c 43 c0 1a 3e
       1.211205 0.28474164 0.027721908 0.15112405
000090 85 9f 0d be e3 24 45 bf 06 13 a8 bb 05 eb 4a 3e
       -0.13830383 -0.7700941 -0.005129221 0.19816215
0000a0 af 8d 93 3f b5 f2 fd 3e 35 e7 da b9 a9 03 d3 3e
       1.1527613 0.49599233 -0.00041752463 0.4121373
0000b0 6f 1e a6 be 04 6d c2 bf bd 5f 3d 3d 0b 89 e3 3e
       -0.32445094 -1.5189519 0.04623388 0.44440493
0000c0 c9 3f f0 3e 9c 8b 15 3f 6d 32 20 be 6f 96 54 bf
       0.46923664 0.5841615 -0.15644236 -0.83042043
0000d0 4c 49 56 3e 9b c4 36 bf 09 df fc bd 95 78 4e bf
       0.20926398 -0.71393746 -0.12347228 -0.80652744
0000e0 fb 56 1d 3f 46 36 1f 3f 3d 11 dd bd 2e 13 b6 3e
       0.61460847 0.6219219 -0.107943036 0.35561508
0000f0 16 2e f3 3e cc 4e 3c bf ef 9f 99 bc dc fc c9 3e
       0.47496098 -0.73557734 -0.01875302 0.3945073
000100 d6 84 17 3f 44 62 44 3f 8b 3c a7 3d cb df 43 3f
       0.59187067 0.7671244 0.081658445 0.76513356
000110 e0 73 4a 3f 19 bc 34 bf 4f c3 89 3d 95 65 38 3f
       0.7908306 -0.70599514 0.06726705 0.7203
000120 71 07 39 3f cd c8 2f bf 73 3c fc bc 2e 6f 6f bd
       0.7227698 -0.6866577 -0.030790543 -0.05845564
000130 3c 70 83 be 6f 24 38 bf 4d fc 0d bd ed 17 dd bd
       -0.25671566 -0.71930593 -0.03466444 -0.10795579
000140 fe 98 3f 3f b9 36 1a bf 98 46 cb bd 88 fe 77 3d
       0.7484282 -0.6023975 -0.09925574 0.060545474
000150 ab c9 f5 be d0 ff 57 bf ef 28 01 be bf 51 a4 bb
       -0.48005423 -0.84374714 -0.12613271 -0.0050146277
000160 44 86 44 3f d8 64 01 bf ec f7 a3 bd 97 f7 f1 be
       0.76767373 -0.505445 -0.08006272 -0.4725921
000170 28 e3 64 bf 53 65 2e bf c9 7b 1a be 05 9b dd be
       -0.8940911 -0.6812336 -0.15086283 -0.43282333
000180 e7 96 9a 3e ed 9d e5 3e f6 b1 08 be 19 c3 84 3e
       0.30193254 0.4484705 -0.13349137 0.25930098
000190 ba 80 3a bd 13 17 a2 be 01 29 25 be f9 48 b4 3e
       -0.04553292 -0.3165823 -0.16128923 0.35211924
0001a0 c3 f6 cc 3e cf 8e 02 3f 63 74 1d be c5 4c dc 3c
       0.40032014 0.5099916 -0.1537643 0.026892075
0001b0 cf 1f a6 3d 94 16 88 be 50 e9 3c be ab fe 61 bd
       0.08111536 -0.26579726 -0.18448377 -0.05517451
0001c0 11 cf 52 3e 8c d2 0d 3f 55 7d a8 bd cc ec 13 3d
       0.20586802 0.55399394 -0.0822703 0.0361145
0001d0 10 b6 51 3e 8c 85 54 be 95 a3 c8 bd 88 9c 50 3d
       0.20479608 -0.20754069 -0.09796826 0.05093053
0001e0 71 5e a2 3f e0 ab 81 3f 63 f9 97 bd 54 7a c9 be
       1.2685071 1.0130577 -0.074206136 -0.3935114
0001f0 21 21 23 3c 89 6d a2 be 93 45 c6 bb 9e 78 d5 be
       0.009956629 -0.31724194 -0.0060507744 -0.41693586
000200 66 ea 50 3f 8e c1 85 3f 86 3f cd be fb 71 a0 be
       0.81607664 1.0449693 -0.40087527 -0.3133696
000210 1a b8 01 be 2c ee 7e be ee 9e ad be d3 d3 d2 be
       -0.12667885 -0.24895543 -0.33910316 -0.41177234
000220 0c b8 a4 3f cb 6f 2c 3f e6 9b 0c 3e a4 7b 23 bf
       1.2868667 0.6735808 0.13731346 -0.63860536
000230 8d bf 61 be 69 55 77 be 5b c1 79 3e 22 9c 2b bf
       -0.22045727 -0.24153675 0.24390166 -0.67035115
000240 09 a2 cb be 2c 3d 5e 3f 5c 7e d4 bd ea ca aa 3e
       -0.3977206 0.8681209 -0.10375664 0.33357936
000250 34 0a 18 bd 5d 87 20 be c3 68 65 bd 58 2c 89 3e
       -0.037119105 -0.15676637 -0.05600811 0.26791644
000260 aa 68 b7 be f0 95 59 3f c5 1e b4 3c 25 32 3d 3f
       -0.3582204 0.8499441 0.021987328 0.7390464
000270 7f 09 62 be 9b c0 ab be 12 57 ea b9 79 01 43 3f
       -0.22073935 -0.33545384 -0.0004469683 0.7617412
000280 5c 4a 6a be de e6 73 3f e6 e7 95 bd 7f b8 05 3f
       -0.22879928 0.9527415 -0.07319622 0.52234644
000290 16 54 18 bf c2 97 57 bf b3 4e 2b be 6f 17 0b 3f
       -0.59503305 -0.8421594 -0.1672924 0.5433263
0002a0 cc fd 4e 3d e4 91 5a be 69 e6 90 bc 1a 7d 82 be
       0.05053501 -0.21344715 -0.017687993 -0.2548607
0002b0 5a f4 7a bd 6b 41 47 be fc 73 20 3c 82 df 83 be
       -0.061268188 -0.19458549 0.009793278 -0.2575646
0002c0 43 ac 07 3d d1 22 95 be d5 bf 00 be 56 70 ba bd
       0.033123266 -0.29128125 -0.12573178 -0.09103458
0002d0 90 9f 80 3e bd 8c c2 be 61 2a bb bd 9f 12 20 be
       0.25121737 -0.37998 -0.091389425 -0.15632103
0002e0 a8 36 a5 3d 61 6c 4a be 42 47 d2 3d e6 5a e1 bd
       0.080670655 -0.19767906 0.102674976 -0.110036656
0002f0 4a 81 27 3f fc 35 3b bf 7f b0 98 3c 5e 38 fb bd
       0.65431654 -0.7312925 0.018638847 -0.122666106
000300 c4 75 1c bf 76 45 97 3e 0c dd 02 be 12 e8 38 be
       -0.61117196 0.29545182 -0.12779635 -0.18057278
000310 c0 2e 74 be 53 03 9c be d9 1b 7a bd ba 95 53 be
       -0.23845959 -0.30471286 -0.061061714 -0.20662585
000320 13 20 d0 be 61 07 da 3e d6 08 69 be 82 5f 8c 3d
       -0.4064947 0.42583755 -0.22757277 0.06854154
000330 31 f0 52 3c 68 77 ef be 03 eb 96 be ad 43 df 3d
       0.012874649 -0.46770787 -0.29476175 0.1090158
000340 ef 97 1f bf 9a b8 83 3e 54 d9 9f be 3f 2b 11 3b
       -0.6234121 0.25726777 -0.31220496 0.002215102
000350 8c 0d 9f 3e 85 15 d2 be 18 22 8a be 0f 07 83 bd
       0.31065023 -0.41032043 -0.26979136 -0.06397831
000360 93 ea d5 be 69 9b 69 3f 22 d9 93 3b 54 b4 cb 3e
       -0.41780528 0.9125276 0.004511968 0.39786017
000370 47 de 2b 3e 03 13 89 be 01 1a 83 3d ee a5 04 3f
       0.16784011 -0.26772317 0.06401444 0.5181569
000380 31 91 ac be 32 eb 92 3f c0 26 4b be ac d1 24 be
       -0.33704522 1.1478026 -0.19839 -0.16095608
000390 33 0e a0 bc e5 bb 0a bf 9e c0 13 be 39 58 64 be
       -0.01953802 -0.54192954 -0.14428946 -0.2229928
0003a0 7c 7d 0a bf 1d 84 62 3f 56 e6 39 be 49 1c 8c bf
       -0.54097724 0.8848284 -0.18154272 -1.0946132
0003b0 f4 57 81 be 41 25 df be e6 4b f4 bd af fa 92 bf
       -0.25262415 -0.4358311 -0.11928539 -1.1482753
0003c0 c0 6c 54 3c c6 74 3f be d5 37 8f bd 03 19 10 3d
       0.012965381 -0.1869689 -0.06993071 0.035180103
0003d0 1d f3 a3 3c 16 0d 46 bf 49 1c 58 bd eb 15 0a 3d
       0.020013386 -0.7736372 -0.05276135 0.03371231
0003e0 c1 13 6f 3d 0e 00 0c be 74 10 5c 3d 81 1e 8f 3d
       0.05836845 -0.13671896 0.05372663 0.0698824
0003f0 ce 6b fb 3d 44 b3 bf bf 1a 6b 08 3d 2d bd 86 3d
       0.122764215 -1.4976583 0.033305265 0.06579051

fc1.bias f4 [256]
000000 7f f6 94 bd 08 2c 84 bf 70 74 16 bf 1b 91 d1 bd
       -0.07273578 -1.0325937 -0.5877142 -0.10232755
000010 7b 10 fc 3e 28 68 9b be d5 e3 8a 3e db ca 83 be
       0.49231324 -0.30352902 0.27126947 -0.25740704
000020 c9 a1 3a bf 2f 5f 21 bf f3 9c 2b bf e7 ca 6f 3e
       -0.72903115 -0.63035864 -0.6703636 0.23417245
000030 42 6b bc be fd 90 a1 be 0d 80 88 bf 25 af 3e bf
       -0.3680058 -0.3155593 -1.0664078 -0.74486
000040 2f 24 13 bf 8a ea 4e bf af 89 1e bf 90 34 8a be
       -0.57477087 -0.8082663 -0.6192884 -0.26993227
000050 3c 2a 52 bf 4b bf 00 bf 0f e1 46 be a3 27 a5 3e
       -0.82095695 -0.5029189 -0.1942179 0.32256803
000060 80 6d 2b bf c9 5f 55 bf f1 9c 32 3e 39 68 ea be
       -0.6696396 -0.8334928 0.17442681 -0.4578264
000070 ef 6d 4c be 99 06 9d bf 45 95 64 bf e4 10 2a bf
       -0.19963811 -1.2267638 -0.8929027 -0.66432023
000080 69 c2 08 3f 1c 8e 00 3f e0 89 80 be 16 98 35 bf
       0.53421646 0.5021684 -0.2510519 -0.7093519
000090 ae 1b 9a be ec 1f 50 bf 1e c3 67 bf e7 4e 81 be
       -0.30099243 -0.8129871 -0.905321 -0.2525551
0000a0 ec 0f 0b bf f4 c0 95 be 99 a4 1a bf 55 30 20 bf
       -0.5432117 -0.29248774 -0.60407406 -0.6257375
0000b0 e0 be cb be 90 89 78 bf 99 57 ad be 68 20 55 bf
       -0.39794064 -0.97084904 -0.33855894 -0.83252573
0000c0 de ef 94 be e3 9a 2f bf 6a 36 21 bf 02 91 a5 be
       -0.29089254 -0.68595713 -0.62973654 -0.32337195
0000d0 8b 1b 30 bf 69 17 07 bf 4a c4 50 bf 36 b5 18 bf
       -0.6879203 -0.52770096 -0.81549513 -0.59651506
0000e0 9f 64 c4 be 83 60 2c 3f 9b 78 1c bf 36 d3 51 3c
       -0.38358018 0.67334765 -0.6112153 0.012806704
0000f0 41 55 e2 be 6c d5 64 bf b1 10 2b bf 89 71 c5 be
       -0.4420567 -0.89388156 -0.66822344 -0.38563183
000100 9e 3c 37 3f d0 e7 d2 be 9c ba 2a bf c9 51 bc be
       0.7157687 -0.41192484 -0.66690993 -0.36781147
000110 e2 c1 9c 3d 89 4f c8 be a8 c1 d2 bd 08 62 fd be
       0.07654168 -0.3912318 -0.10290843 -0.49488854
000120 a9 5a ba be 35 c4 cc be 18 d6 dd be 3c 34 0e bf
       -0.36397293 -0.39993444 -0.43327403 -0.55548453
000130 e0 2d 40 bf fd be 2a bf f1 14 5e bf e4 2e 3e bf
       -0.7507 -0.66697675 -0.86750704 -0.742903
000140 48 7b 11 3f 7d fa 0e bf 45 78 ae be ae 8e 9b 3d
       0.5682874 -0.55850965 -0.34076133 0.07595573
000150 11 5e 2e bf 95 37 e8 be 38 fd 25 bf 5c 62 f0 be
       -0.68112284 -0.45354906 -0.64839506 -0.46950042
000160 8e bb cb bc 01 5a 02 3f 47 4e 63 bf 31 da ba 3b
       -0.024869706 0.50918585 -0.88791317 0.00570228
000170 aa fb a7 be 2f f9 b3 be 9e 01 29 bf 35 dc 3a 3f
       -0.32809192 -0.3515105 -0.6601809 0.7299226
000180 5b 70 3a bf 35 59 e1 be 03 12 d2 be e3 3b 0c bf
       -0.7282769 -0.44013372 -0.41029367 -0.5477888
000190 61 85 26 bf 9e 00 30 be c7 7c f5 be dd 99 3b bf
       -0.6504727 -0.17187735 -0.4794676 -0.7328165
0001a0 2d 50 16 bf 34 08 28 bf 99 ab 12 bf f8 78 93 be
       -0.5871609 -0.65637517 -0.5729309 -0.2880323
0001b0 67 66 69 3e 62 8f 5f bf 91 8e 4e bf 7c 9c 1d bf
       0.2279297 -0.8732816 -0.8068629 -0.615669
0001c0 3d 61 3c bf 6f a3 2d 3f e3 40 4c bf 8d a6 d4 be
       -0.73585874 0.67827505 -0.7978651 -0.41533318
0001d0 cd 57 5f bf 94 ab 0a bf 6b 9a 6f bf c2 2c b2 be
       -0.8724335 -0.5416806 -0.93595 -0.34799773
0001e0 73 db a3 bd 8d 9e 23 bf 13 af 48 bf af 42 9b 3e
       -0.08000841 -0.63913804 -0.7839214 0.30324313
0001f0 c9 4f 47 bf 33 3b 16 be 33 6c 40 bf c1 ef 09 bf
       -0.7785612 -0.1467102 -0.751651 -0.5388146
000200 9e fa f7 be 80 1f bc be 99 91 4a bf 5c 5c 8b bf
       -0.48433393 -0.36742783 -0.79128414 -1.0887561
000210 d7 3a c1 3e ea eb a8 3e 83 88 d8 be 8d d0 99 be
       0.37740204 0.32992488 -0.4229165 -0.30041924
000220 57 08 5f bd 90 84 68 3f da a9 02 bf 1b af 7a bf
       -0.054451313 0.90827274 -0.5104042 -0.9792344
000230 f6 83 c1 3d e8 f3 a8 3e f9 44 3f bf 27 97 cd be
       0.09448998 0.32998586 -0.7471462 -0.40154383
000240 23 87 9b be 1a af ba be e5 76 0b 3d ae 67 4d bf
       -0.3037654 -0.36461717 0.034048934 -0.8023633
000250 28 e1 32 bf a9 1d bb 3c 7c 4d 6a be 49 20 d6 be
       -0.6987481 0.022841292 -0.2288112 -0.41821507
000260 de 2d f2 be 4e c6 6f 3d c7 a7 d6 be 13 83 8b bf
       -0.4730062 0.058538727 -0.4192488 -1.0899376
000270 c8 62 af bb e3 23 83 be d3 08 99 be c3 7a 2d be
       -0.005352352 -0.25613317 -0.29889545 -0.16941361
000280 2d 99 36 bf 35 67 db be 45 89 e8 be da 16 08 3f
       -0.7132748 -0.42852178 -0.45417228 0.5315987
000290 91 9d 72 bf 1a 2e f9 be 1e d0 8d be 6f 1f 82 3f
       -0.9477168 -0.48667985 -0.27697843 1.0165843
0002a0 c7 46 fd be 52 73 32 bf 22 6e 0b be 91 69 70 3e
       -0.4946806 -0.69707215 -0.13616231 0.2347777
0002b0 d3 2c 9b bd 3f 2b 4f bf 4e eb 31 be ca f4 14 3f
       -0.07576909 -0.80925363 -0.17374918 0.5818602
0002c0 5b ad b0 be 6b 0f f0 be 5b 78 e2 be 58 13 2c bf
       -0.3450726 -0.46886763 -0.4423245 -0.67217016
0002d0 ed d8 c9 be 22 8e 0f bf 29 85 4a be 51 e1 2b bf
       -0.39423314 -0.5607625 -0.19777359 -0.6714068
0002e0 6f 75 1d be b9 d8 96 be c1 cc 73 be 2b 19 1d bf
       -0.15376829 -0.2946222 -0.23808576 -0.6136653
0002f0 4f 11 05 3d fc 40 c2 be 9a 78 54 bf 43 d3 c9 be
       0.03248721 -0.37940204 -0.82996523 -0.39418992
000300 7b 32 2d bf d7 d2 b7 be 21 74 b6 bc b4 49 5b bf
       -0.6765515 -0.35903046 -0.022272171 -0.8565934
000310 bb a5 25 bf db 05 13 bf b2 ed cb be 7d e1 21 bf
       -0.6470601 -0.5743081 -0.39829785 -0.6323469
000320 2b 6c 9a bd e9 e8 a9 be 11 15 37 bf 84 12 3d 3f
       -0.07540163 -0.3318551 -0.7151652 0.7385638
000330 76 8c 04 bf c7 d1 3d bf f8 5d 0c bf c9 5e fb be
       -0.51776826 -0.7414822 -0.54830885 -0.49095753
000340 75 6a 15 bf dd 27 00 bf 10 21 10 be 18 f5 3c 3e
       -0.58365566 -0.50060827 -0.14075112 0.18452871
000350 51 f4 2c bf 26 6c 49 bf 7e 88 b2 be 28 e3 4a 3f
       -0.675603 -0.78680646 -0.3486976 0.7925286
000360 7b 1f ef be 55 58 04 bf 21 8e 34 be 4b 37 8a bf
       -0.46703705 -0.51697284 -0.17632343 -1.0798124
000370 cd a3 59 3c 8b 9e 87 bc 4d 4a 8b bd 2d 1a 31 bf
       0.013283682 -0.016555091 -0.06801281 -0.69180566
000380 c6 9b 16 bf 0c 12 a2 be 3c 2a 46 bd d0 50 af be
       -0.5883144 -0.31654394 -0.04838012 -0.34241343
000390 76 b9 09 bf 73 58 6c 3d 9a 07 3b bf c9 62 ef be
       -0.53798616 0.05770154 -0.73058474 -0.46755055
0003a0 cb b9 da be 67 d0 19 bf bc 64 30 bf 2d 10 24 bf
       -0.42719874 -0.6008362 -0.6890371 -0.6408718
0003b0 7b d5 b8 be 00 63 58 bf bd 88 1f bf 10 41 b0 be
       -0.36100373 -0.8452606 -0.6231802 -0.3442464
0003c0 c9 ed 02 bf 57 8b 47 bf 7d a7 08 bf 4d ea 12 3f
       -0.5114408 -0.7794699 -0.53380567 0.57388765
0003d0 62 30 4a bf 85 12 4e bf 5e e9 66 bf 0b 76 28 bf
       -0.78980076 -0.8049701 -0.9019984 -0.6580512
0003e0 1e ee 95 be ca 2a 12 be e8 9d 35 bf 5a 83 25 3f
       -0.29283231 -0.14274135 -0.7094407 0.6465355
0003f0 16 10 1a bf a5 04 bb be 7b 6d c3 be 67 cb b6 be
       -0.60180795 -0.3652698 -0.38169464 -0.3570206

fc2.weight f4 [128, 256]
000000 e9 4c 5e be 22 1f 90 be ba 2e 3d 3e 9a 6b 4b be
       -0.21709026 -0.28148752 0.18474856 -0.19865265
000010 f6 0b d5 be 1d f3 1c 3d 43 01 12 bf e6 25 78 3e
       -0.41610688 0.03831779 -0.57033175 0.24233207
000020 e8 80 8f 3e ef 3a 98 3e 2a 56 9a be 24 f2 40 be
       0.28028035 0.29732463 -0.30143863 -0.1884237
000030 cb cd 81 bd 2e eb 1b 3f 5f 07 63 3f 70 64 07 3d
       -0.0633808 0.6090573 0.8868312 0.03305477
000040 11 3a a8 be a2 99 2e 3e 2b 9c 94 be ab 92 e2 3d
       -0.328568 0.17050794 -0.29025397 0.11063131
000050 71 b3 a3 3e 71 d3 c6 3e b7 68 42 be 25 fe c8 be
       0.3197284 0.38833192 -0.18985258 -0.39256397
000060 63 79 c3 3c bf 61 f4 bd 7a d3 3a bf bc 72 84 be
       0.023861593 -0.11932706 -0.7297894 -0.25868785
000070 41 ce c9 be 6b 80 3f bd 1f 1a da be d7 32 08 be
       -0.39415172 -0.04675333 -0.42598054 -0.13300644
000080 22 12 a7 3e 97 d9 e6 bd 63 84 d6 3d 63 26 a0 be
       0.32631022 -0.11271971 0.104744695 -0.31279287
000090 71 f1 83 bf 5c 33 67 3e 85 3d 97 be 8e 12 56 3e
       -1.0308057 0.22578186 -0.29539123 0.20905516
0000a0 0d 38 3d 3e fe 8c 85 be 57 43 c5 be f4 9e 27 be
       0.18478413 -0.2608413 -0.3852794 -0.1636923
0000b0 ee 59 87 3e 20 2a a6 3e 8d a9 7d 3d a8 62 fe 3d
       0.26435798 0.32454014 0.061929274 0.12421161
0000c0 87 92 c5 3e 1a cb a3 3d d4 18 17 3f 07 5f 55 3e
       0.38588354 0.07997723 0.5902226 0.20837031
0000d0 62 6c 1c 3f d2 35 43 3e 74 9b 34 3f 31 93 5a 3e
       0.6110288 0.190635 0.705497 0.21345212
0000e0 19 df 86 bd 90 7f 73 be 22 c6 ee 3e 25 3e a2 3d
       -0.06585521 -0.2377913 0.46635538 0.079220094
0000f0 96 0b 02 3e a0 10 9f 3e 17 c2 c7 3e ca 23 97 3e
       0.12699732 0.3106737 0.39015266 0.29519492
000100 1d bb 88 3e 03 d2 93 3e 13 fb 16 3e d9 be 07 3e
       0.26705256 0.28871164 0.14744215 0.13256396
000110 da 2e a5 3e 2a cb 8f bd 41 56 dc 3d 87 bd 2c 3f
       0.32262307 -0.07021172 0.10758639 0.67476696
000120 13 08 95 3e 29 03 ff 3d 47 ed 85 3e 78 01 6c be
       0.29107723 0.124517746 0.2615759 -0.23047435
000130 63 4a 72 bd 59 b6 08 bf be 27 eb 3e 73 3c 88 bc
       -0.059152972 -0.5340324 0.45928758 -0.016630387
000140 14 55 12 3f 0d 29 4e be d5 53 8a be b1 08 4e 3d
       0.5716107 -0.20132847 -0.27017084 0.050301258
000150 df 9a 3f 3f 8a 05 15 be f8 09 cc 3d b3 d9 18 bf
       0.7484569 -0.14552894 0.09962839 -0.5970718
000160 32 b9 3a bf 97 6f 0c bf 83 32 b4 bd b4 32 fa 3e
       -0.72938836 -0.5485777 -0.08798697 0.48866808
000170 30 9e 37 3e 8c 93 ef 3e 6c fa 41 be 1f 15 c6 be
       0.17931437 0.46792257 -0.18943185 -0.3868799
000180 8d a2 07 bf a4 43 9b 3b 54 b5 fe 3d 49 cb 7f bd
       -0.5298241 0.004738288 0.12436929 -0.062449727
000190 3d 89 a8 3d bf 80 0f 3e a2 11 05 bc b7 89 cf be
       0.08229301 0.14013956 -0.00812188 -0.40534756
0001a0 e6 78 5d 3e a3 f4 c6 bc 96 ee b2 bd 3d 4f 57 3f
       0.2162815 -0.024286574 -0.08736913 0.84105283
0001b0 b4 9e 46 3e a2 b9 02 3e 0a 82 cd be b5 7a 58 3f
       0.19396478 0.12766126 -0.40138274 0.84562236
0001c0 9d f8 4a bc 4d f5 92 3d 09 9f 85 be 80 9d 8e 3e
       -0.012388376 0.07175694 -0.26097897 0.27854538
0001d0 d2 08 b3 3e 44 a2 19 bf 6c 2f 28 3d b6 68 50 3f
       0.34967667 -0.6001322 0.04106085 0.81409776
0001e0 06 ab fd ba 64 0f ed bd c4 10 a1 bd 02 74 24 bf
       -0.0019353337 -0.11575201 -0.07864526 -0.64239514
0001f0 63 bd 66 bd 4f 02 6f be af 1e 1c 3e 5f 8f a6 be
       -0.056332957 -0.23340724 0.1524608 -0.32531258
000200 ba 63 10 3e f4 bc db be d6 73 67 3f c6 e2 84 be
       0.14100543 -0.42917597 0.90411127 -0.25954264
000210 de bb ae 3e 1b 3b 3e be ef c4 c4 3e 4b a4 36 3b
       0.34127706 -0.18577234 0.38431498 0.0027868922
000220 92 5f 46 3e 73 7c 11 3f cf c5 b5 3e c8 b5 5f 3e
       0.19372395 0.5683052 0.35502478 0.21846688
000230 ad 43 22 3f 26 7c 5a bf ec 2d 56 3e f6 93 aa 3e
       0.63384515 -0.85345685 0.20915955 0.3331601
000240 de b7 10 3f 11 f7 82 bd 22 51 e6 be ad 94 bd 3e
       0.5653056 -0.063947804 -0.44983774 0.37027493
000250 f9 ae 28 3f 68 eb 99 3e b9 d6 86 be 67 54 30 bf
       0.6589199 0.30062413 -0.26335695 -0.6887879
000260 04 a6 1c 3f 8c 38 f5 3d a2 a7 18 bf f9 c2 c4 be
       0.6119082 0.11973676 -0.5963079 -0.38430002
000270 e0 79 85 be a9 a2 b2 be 64 d8 75 3e 83 48 f5 3e
       -0.26069546 -0.34889725 0.24008328 0.47906885
000280 cb 5c ab 3d 56 bc 81 be 12 80 8b be 85 85 87 3e
       0.08367308 -0.25339 -0.27246147 0.26469055
000290 27 ad 1d 3f a5 7a 77 3e c3 f0 9d 3e 4e cf e5 bd
       0.61592335 0.24167879 0.3084775 -0.11221181
0002a0 f9 39 40 bd c5 df c3 3e 43 df aa bd 7d b0 24 be
       -0.046930287 0.3825666 -0.08343365 -0.1608295
0002b0 eb f4 04 3f 0e e8 82 3e d5 a9 94 3e 05 49 2a bf
       0.51936215 0.2556767 0.29035822 -0.6651767
0002c0 8e ec 07 3e 64 83 e3 3e 38 3b 53 be e9 60 7e bc
       0.13273832 0.4443618 -0.20628059 -0.015526035
0002d0 f0 ac aa 3e 66 fb a1 3e 19 87 a1 bd 25 4d 0d be
       0.33335066 0.31637114 -0.07887096 -0.1379896
0002e0 45 84 42 bf 64 f5 f0 3e 5b 59 37 bf b0 a7 9e 3e
       -0.7598308 0.47062218 -0.7162072 0.3098731
0002f0 a3 4a 5c bf 27 f7 19 bb c4 18 a0 bd 39 a6 bc 3e
       -0.86051387 -0.0023493262 -0.07817224 0.36845568
000300 0d 8d 05 bf bf 6c 08 bd ec 8b 2c 3c ef 82 f9 3e
       -0.5216835 -0.033306833 0.010531407 0.48732707
000310 1b 7f 08 bf 24 39 4b 3e 0d 26 9e 3f 7b c0 8c 3c
       -0.5331895 0.19846016 1.2355362 0.017181626
000320 e0 bb d0 bd ac a4 89 3e c5 2c 2e 3f 8d de b7 3d
       -0.10192084 0.26883447 0.6803706 0.08977995
000330 68 2b 2d 3f c4 4e 38 be 0b 0e 5f 3f be a6 52 3c
       0.6764436 -0.17998797 0.871308 0.012857137
000340 1e 78 a3 3e db a4 aa 3c 92 b3 28 3f ae 5c 64 be
       0.3192758 0.020830562 0.65899 -0.2230098
000350 fb 0e f8 bd ea 01 c2 3e 33 47 7e 3e d1 af 18 bf
       -0.12112232 0.37892085 0.24831848 -0.59643275
000360 3e 81 80 3e bf 5a 26 3f f9 99 46 3f 5d 43 cf be
       0.25098604 0.6498222 0.77578694 -0.40481082
000370 96 00 73 be 45 44 47 3e 5e 7e 65 3f 21 0a 5d 3e
       -0.23730692 0.19459637 0.89645946 0.21585895
000380 a5 7b 13 be 78 2a 8b be ad ab 0a bf a5 f5 4c 3e
       -0.14402635 -0.2718084 -0.54168206 0.20015581
000390 bb 1b df 3e 6d d2 85 3e 5f a7 7f 3e 4f de 14 3f
       0.43575844 0.26137105 0.24966191 0.58151716
0003a0 c0 09 50 3f ad 26 4e 3e 48 83 a3 be 90 44 87 be
       0.8126488 0.20131941 -0.31936097 -0.26419497
0003b0 e5 64 cb bd 43 8e 9d 3c 94 74 88 3e 67 a0 bb 3f
       -0.099313535 0.019232875 0.26651442 1.4658326
0003c0 ff 92 15 3f b3 d7 79 bf 4a 13 49 bc a8 bc 57 3e
       0.58427423 -0.97594756 -0.012272665 0.2106806
0003d0 67 7d 1a 3e fa 79 f4 3e 0b b3 16 3f 0c aa a4 bd
       0.150869 0.4774931 0.5886695 -0.08040246
0003e0 14 ff 2f 3f 33 69 86 bd 12 19 eb 3e 1a 6a 07 3e
       0.68748593 -0.06563034 0.45917565 0.13224068
0003f0 8e 0f 11 3f 73 bf 39 3f 68 25 04 3e 9c 9a 85 3e
       0.5666436 0.72557753 0.12904894 0.2609452

fc2.bias f4 [128]
000000 0e 19 61 bf 7f 59 1c be 79 12 19 bd b1 e5 05 be
       -0.87928855 -0.15268515 -0.037371133 -0.13075902
000010 ca 04 90 be 14 88 ba be da f3 c5 be ed c0 83 3e
       -0.28128654 -0.36431944 -0.38662606 0.25733128
000020 05 85 35 bf 4b 71 31 bf 62 14 82 be 73 62 5a bf
       -0.70906097 -0.69313496 -0.25406176 -0.8530647
000030 45 4c f3 be 31 a8 b1 be 52 5a 43 be c9 48 a3 be
       -0.47519127 -0.34698632 -0.19077423 -0.31891468
000040 57 c3 6b be 03 38 03 be 9c 4b d8 be 38 e1 94 bd
       -0.23023735 -0.12814336 -0.42245185 -0.072695196
000050 b6 8f 08 be 4a 76 40 be bf 35 86 be 3f dd 55 3d
       -0.13336071 -0.18795124 -0.2621288 0.05221295
000060 78 5a da 3e 83 1c e6 bd 0c e6 4a be 63 88 2b be
       0.42647147 -0.11235907 -0.19814318 -0.16751246
000070 43 c5 a4 be 36 fa 62 be 40 f8 81 3d 33 95 73 3e
       -0.3218175 -0.2216576 0.06346178 0.23787384
000080 12 6e 80 be 88 a2 cd be 4b 0f 33 be 34 8b 6a be
       -0.25083977 -0.40163064 -0.17486303 -0.22904664
000090 54 24 e0 be d1 02 c4 be 67 5c 7a be fa 76 b0 bc
       -0.43777716 -0.382834 -0.24449311 -0.021541107
0000a0 9d f9 d2 bd 38 5a ef be c4 6d 33 3e 96 ec 4b be
       -0.10301516 -0.4674852 0.17522341 -0.19914469
0000b0 e3 cd f0 be 71 cf cb bd d8 ee c0 be fd 96 80 be
       -0.4703208 -0.09951676 -0.37682223 -0.25115195
0000c0 13 1b a8 be b4 83 a5 3e 39 86 f6 bc 59 81 d3 bd
       -0.32833156 0.32327044 -0.0300933 -0.103274055
0000d0 bf 24 39 be 05 25 f8 bd db 4c de be 5f fd cd be
       -0.18080424 -0.12116436 -0.4341801 -0.4023237
0000e0 6c 28 77 bd e2 94 2c be 96 ff dc bc 0a d5 67 3c
       -0.060341284 -0.1685367 -0.026977342 0.014149914
0000f0 b9 1e 8a be 59 c0 41 bf cb 8d 06 bf 1b d8 d0 be
       -0.26976565 -0.75684124 -0.5256011 -0.40789875
000100 23 aa 5a bf 85 82 4f be 66 c2 9e be 96 18 9b be
       -0.8541586 -0.20264633 -0.3100769 -0.30292195
000110 33 44 c6 be 37 35 bc bd 45 e0 c0 bd 8c 48 74 be
       -0.38723907 -0.091898374 -0.09417776 -0.238558
000120 55 2b 7d be a1 5f cf be 8f 73 1c bf 0d b2 cc be
       -0.24723561 -0.40502647 -0.6111383 -0.39979592
000130 c1 8a 0b be 0d cf 79 bc 24 7f 65 be eb b5 8c bb
       -0.13627149 -0.015247119 -0.22411782 -0.0042941472
000140 94 ab c7 bd a7 67 f1 be 40 2c 87 be f0 9a 84 be
       -0.09749523 -0.47149393 -0.26400948 -0.25899458
000150 00 a8 c5 be 09 18 1f bf 19 f2 8b be 6f 59 ee be
       -0.38604736 -0.6214605 -0.27333143 -0.46552607
000160 eb a2 c6 bd 15 fc 23 bf 3c 77 99 bf 0a 71 e3 be
       -0.09699043 -0.6405652 -1.1989512 -0.4442218
000170 ba 05 40 be b0 7d 30 be 92 e6 59 3d 41 49 85 be
       -0.18752185 -0.17235446 0.053198405 -0.2603245
000180 2a 43 02 bf 5f 2e ad be a0 79 46 be 29 88 56 bf
       -0.50883734 -0.3382444 -0.19382334 -0.83801514
000190 bf 1a 84 be dd 87 82 be 0e f3 64 3e ba 0b bb bd
       -0.25801656 -0.2549428 0.22358343 -0.09133096
0001a0 ab a6 36 be fd 07 96 bd 8a 54 43 be 0d 96 60 be
       -0.17837016 -0.073257424 -0.19075218 -0.2193224
0001b0 8b ad 25 3e 00 0d 45 be 3c 97 f9 bc ae 25 c9 be
       0.16179483 -0.1924324 -0.030467622 -0.3928656
0001c0 c3 84 99 be 4a 2e 8b bd d8 fd 14 be ba ff 37 bf
       -0.29984102 -0.06795938 -0.14549959 -0.7187458
0001d0 f4 a0 db be 1f 36 fc be e3 11 0b be be 24 12 be
       -0.42896235 -0.4926004 -0.13581042 -0.14271829
0001e0 3d e8 27 bf 27 ff bc be c5 d2 c2 be a5 b6 06 3d
       -0.6558874 -0.36913416 -0.3805143 0.032889027
0001f0 80 ab da bd 9b 68 d6 3d 7c 7d ed bd 42 68 b8 bd
       -0.10677242 0.10469171 -0.115962 -0.090042606

fc3.weight f4 [2, 128]
000000 7b fc ab 3d d4 d3 a1 bc 01 c2 8c bc b3 2f f5 bb
       0.08397766 -0.019754328 -0.017182352 -0.007482493
000010 00 c4 bd 3a a9 64 8e 3e 4e 24 68 bd c2 5b 3f be
       0.0014477968 0.27811173 -0.056675248 -0.18687347
000020 dd f4 c5 3d d8 40 4f bd 17 74 96 bc e3 6f bd 3d
       0.096658446 -0.05059895 -0.018365903 0.09249856
000030 47 6f 72 bc c6 93 11 3e 52 c9 cc bc a8 66 c7 3d
       -0.014797038 0.14216527 -0.02499834 0.09736377
000040 4f 8d 64 be 95 2e 42 be 75 70 5a 3d 72 72 b3 3c
       -0.2231953 -0.18963082 0.053329904 0.021905158
000050 21 51 35 3d e6 3e f5 bd d3 14 b1 3c 99 8d e8 3d
       0.044266824 -0.119748875 0.021616375 0.113551326
000060 76 00 12 bd 60 c8 f3 3c c5 a5 fd bd 09 e3 f5 3c
       -0.03564497 0.029758632 -0.12385134 0.030015485
000070 45 f7 a7 be e6 c6 64 bd 8b 73 00 bf 10 e7 8e 3d
       -0.3280584 -0.055853747 -0.50176305 0.069776654
000080 4a e3 ac bd f0 b4 b1 3d db 67 04 3d 88 c9 55 bc
       -0.084417894 0.08677089 0.032325607 -0.013048537
000090 89 48 7f 3d ba 81 e7 be 6c b0 3a bd d7 69 8a bc
       0.062325034 -0.4521616 -0.045578405 -0.016896171
0000a0 47 07 af 3d cf 92 3d bd f6 91 a6 3d 80 43 1d be
       0.0854631 -0.046282586 0.081333086 -0.1535778
0000b0 f1 ee 96 3c 90 c9 a0 3c 49 6e 0f 3d 68 1f ee bd
       0.018424483 0.019627362 0.035017285 -0.11627084
0000c0 cc 33 88 3c 74 1e 3e bc ae ea c1 3c 9a 8a 45 bc
       0.016626261 -0.01160394 0.023671474 -0.012056971
0000d0 79 c8 b6 3b 2a 38 bd 3b 90 2d d0 3e 31 29 95 3e
       0.0055780974 0.0057745175 0.4065976 0.2913299
0000e0 99 44 54 bc 8b 83 4b 3d 71 30 a9 3e 5b 2c 21 be
       -0.012955808 0.049685996 0.3304477 -0.15739577
0000f0 74 e3 4e be 4e 56 7d bd 81 c8 49 3e 6c a2 0d 3d
       -0.20203954 -0.061849885 0.19705392 0.034578726
000100 60 fe 51 bd 38 2d ca 3d 1b fc 3f 3e 4b 6f 03 be
       -0.05126798 0.09871906 0.18748514 -0.12835424
000110 cc ee 86 3d 05 0a 77 bc 8b 6c 61 bd 5c 7b e1 bd
       0.06588516 -0.015078072 -0.055035155 -0.11009857
000120 6f 22 b9 3d 56 91 b3 bc ed 17 5b 3e 93 56 cb 3c
       0.09039771 -0.021919888 0.21395846 0.024821555
000130 40 da 1a bd 67 f6 36 3d 03 e1 bb bd 47 0c b2 3c
       -0.037805796 0.04466858 -0.09173777 0.02173437
000140 89 89 50 bc 97 0c 48 be c7 2d 8f bd ed c3 0c 3d
       -0.012728103 -0.19536053 -0.06991153 0.034366537
000150 ec 90 a4 bd 3c 03 38 3c 2d 9d 90 be 2f 14 5f 3a
       -0.08035454 0.01123124 -0.28244916 0.00085097825
000160 34 30 df 3b 2e b0 ac bd 85 db 3f be 0b 4a 92 3e
       0.006811166 -0.08432041 -0.18736084 0.28572115
000170 3b 4d 1f bd 87 9a db bc 2b 41 25 3f 61 41 a5 3c
       -0.038892012 -0.026807083 0.64552563 0.020172777
000180 0f 3b 48 3e 2e 1e 88 be 65 65 ff bb b6 cb 30 3f
       0.19553779 -0.26585525 -0.0077940696 0.6906084
000190 3d ce b7 bc 93 3e 5a bc fd 9f a3 3c ba e0 81 bd
       -0.02243721 -0.013320583 0.01997375 -0.06341691
0001a0 15 63 0d 3c 81 c4 00 bc 35 58 97 3d 17 20 95 3c
       0.00862958 -0.00785935 0.07389871 0.018203778
0001b0 43 a7 79 bc 1b 84 e4 bb de 09 c5 3b 16 68 cc be
       -0.015237632 -0.006973756 0.006013139 -0.3992316
0001c0 f7 7d 34 3b 68 2e ab bb 4b bf 52 bc 7d 9a b3 3b
       0.0027540901 -0.005224038 -0.012862991 0.005481063
0001d0 43 07 41 bc 83 fb ca bb 70 70 d9 3d d1 ad 75 be
       -0.0117815165 -0.0061945333 0.10617149 -0.23992087
0001e0 b9 18 d4 3c 9e 35 8c 3e c0 11 60 bd c0 96 5d bd
       0.025890695 0.27384657 -0.054704428 -0.054098845
0001f0 e7 fb 87 3d a8 43 5e be 87 27 5a bc e8 78 bd 3d
       0.066398434 -0.21705496 -0.013315088 0.09251577
000200 b0 73 2a 3e 96 d3 df 3d 30 56 9c bb d3 8b a1 3c
       0.16645694 0.10929029 -0.0047710165 0.019719994
000210 9a 7c 6a 3c 32 2b 64 be 51 09 2c be ce 1e c8 be
       0.014311934 -0.22282103 -0.16800429 -0.39086002
000220 93 95 96 bd ba d6 04 3f 9d 11 c0 3e f5 7b ed 3e
       -0.07352748 0.51890147 0.37513438 0.46383634
000230 34 0f fe 3e 81 ff 67 be 61 d5 ae be 6b 69 9c bf
       0.49620974 -0.22656061 -0.3414717 -1.2219671
000240 ab ea 76 bd 20 db 8d 3c a4 29 27 bd 56 ea e5 bb
       -0.06028239 0.017316401 -0.040811196 -0.0070164604
000250 f7 dd cd bc 8c cb 0f 3f 6c af a8 3e 8e 12 0e 3f
       -0.025130255 0.5616996 0.32946336 0.5549706
000260 31 83 db 3e 18 f7 3b be 22 6f d8 3e 45 aa 7f bb
       0.4287353 -0.18355978 0.42272288 -0.00390114
000270 fb b5 b5 3d 0b 88 23 bf 1a a1 85 3b 57 de bb 3d
       0.08872601 -0.6387946 0.0040780427 0.09173267
000280 84 f0 66 3d 02 82 b9 3d 55 47 e7 3d 00 03 f0 3d
       0.056381717 0.09058 0.112929024 0.11719322
000290 78 47 06 3f b5 be 24 bf 86 b2 d3 3d 48 61 56 be
       0.524528 -0.64353496 0.10336785 -0.20935547
0002a0 d8 58 10 3e dc e1 df 3e 8b ba bf be e8 19 26 bf
       0.14096391 0.43727005 -0.37447008 -0.6488328
0002b0 ef a3 14 bf 71 dd 54 3c 10 b0 a3 be 9f f5 f6 3d
       -0.5806264 0.012992249 -0.31970263 0.12058567
0002c0 a4 ce 12 bf 6d 82 88 3d 30 94 08 3c 2d 9f 8a 3e
       -0.5734656 0.06665502 0.008336112 0.27074566
0002d0 21 4c 4d 3d b7 84 20 bd 26 77 f9 be 84 ee f9 be
       0.05012143 -0.039189067 -0.48723716 -0.48814785
0002e0 61 4c 59 3c 4e a1 fd 3d 37 f7 04 3f 00 86 cc 3c
       0.013262839 0.12384282 0.5193972 0.02496624
0002f0 82 be 18 3e 62 2a 45 3f a2 17 a7 3e 53 8b c8 3e
       0.14916423 0.77017796 0.32635218 0.39168796
000300 82 6a c0 3e 6e 75 2d 3f 92 64 05 bf be 19 1a 3f
       0.3758126 0.6775731 -0.52106583 0.6019553
000310 22 14 b5 be 84 11 5a 3d 0a 90 8f 3d b5 06 c2 3d
       -0.35366923 0.05323936 0.07009895 0.094739355
000320 30 6c 1e 3e aa c6 28 3f 2f ee 1f 3e 5d 6f d6 3e
       0.15470958 0.6592814 0.15618204 0.41881838
000330 70 63 f5 3c 54 10 ea 3e af 6b 83 3d 33 0c c7 3e
       0.029954642 0.45715582 0.064170234 0.38876495
000340 c9 e6 dc 3c 6b ed 40 3e 83 a4 0d 3e 4e 9a cf bc
       0.026965516 0.18840568 0.13832287 -0.025342133
000350 c6 21 05 3f 79 29 bd 3e f9 80 59 bf 3a 57 d0 be
       0.5200466 0.36945704 -0.8496242 -0.4069155
000360 ba bf 00 3d 43 7b 00 3f b3 96 8b 3e a8 eb 71 3f
       0.031432845 0.5018808 0.27263412 0.9450021
000370 84 36 64 3e 1e e3 f2 bd 69 ff f8 3d 73 72 b1 be
       0.22286421 -0.118597254 0.121580906 -0.3465763
000380 6e 1f ae 3d dc 5a d3 3d fa ab eb be 82 54 96 bf
       0.085020885 0.103200644 -0.46029645 -1.174454
000390 ab 92 e9 3e 6b 48 5e 3e 15 9e 93 bd 23 d0 12 3f
       0.4561971 0.21707313 -0.07207886 0.5734884
0003a0 e6 90 bf 3d 75 2f 46 3c 05 4c 1f 3f f0 04 8b be
       0.09353809 0.012096276 0.6222537 -0.27152205
0003b0 c7 b7 c5 be 52 d4 0f 3e 4e 7b 81 bc 74 09 0a be
       -0.38616773 0.14045838 -0.015805867 -0.13480169
0003c0 01 5d 1b 3e 4e c3 c9 3b 4e e6 8a 3e 3b e1 a6 be
       0.15172197 0.0061573153 0.27128834 -0.32593712
0003d0 c7 0f 7b 3e 47 91 43 3f 6c a1 0f bf b9 85 1b 3e
       0.24517737 0.7639355 -0.56105685 0.1518773
0003e0 36 14 fe be 12 91 85 3f ca 34 64 3e 3c 11 e2 3e
       -0.49624795 1.0434897 0.22285762 0.44153774
0003f0 6b 83 cb bd 74 36 60 bf 32 98 37 bd 89 84 83 3d
       -0.09937175 -0.8758309 -0.04482288 0.064217634

fc3.bias f4 [2]
000000 ed 2c 88 be d9 ab d4 3f
       -0.26596776 1.6614944
