checkpoint_critic2.pth (torch_old, 185256 bytes, 5 tensors)

fcs1.weight f4 [256, 48]
0.7218463 1.5668105 -0.12457525 0.25907883 0.10443136 -0.30635625 -0.1407263 0.2894926
1.4056009 1.5867523 -0.07206328 -0.11670142 0.17864004 -0.3839609 0.03437443 -0.15354978
1.4121329 1.5703818 -0.16819762 0.01638838 0.24522613 -0.72594756 -0.1283718 -0.07320641
0.17280373 -0.48962867 0.012570809 -0.4212892 -0.17465873 -0.37015754 -0.02381263 -0.38741422
0.38079566 -0.343425 -0.10108755 -0.11939893 -0.22760177 -0.35797614 -0.12208147 -0.06369696
0.5393282 -0.37525973 0.039168056 -0.14726079 -0.28802323 -0.7270654 0.046072137 -0.07041694
0.68072826 0.55010873 -0.08716065 -0.06022686 0.13079602 -0.59753823 -0.119297996 0.012298064
1.0283736 0.63978976 -0.07358863 -0.5504285 0.10589972 -0.3824257 -0.08148089 -0.53250575
0.8599056 0.787297 -0.069752604 0.6954844 0.09108752 -0.18164822 -0.088401005 0.612712
1.3107293 -0.50151503 -0.10234744 0.24155074 -0.21203919 -0.5741161 -0.1488519 0.23103938
1.281872 -0.54634833 -0.13365702 -0.082343884 -0.1659447 -0.34072384 -0.09442531 -0.12238947
1.1076213 -0.40738007 -0.049796134 0.0387219 -0.08493826 -0.11862133 -0.070516996 0.06296995
0.053699933 0.7069628 -0.036857802 -0.7799182 0.01365261 -1.0849166 -0.050959706 -0.68542683
0.2867826 0.7645384 -0.12357185 -0.09274186 0.04536145 -1.3141131 -0.024479968 -0.11408602
0.5424744 0.6000226 -0.07205983 -0.422733 0.3047588 -0.6694439 0.018237479 -0.30925936
1.0096087 -0.74398386 0.0016430836 0.124367446 -0.008692775 -1.0706501 0.0826041 0.046773538
0.67763275 -0.7661352 -0.09679761 -0.31901285 -0.020438919 -1.3340824 -0.110677674 -0.31065902
0.4798748 -0.8980919 -0.16024855 -0.10560149 -0.28420693 -0.63263816 -0.13938984 -0.0408799
0.18032265 -0.19081189 0.04482108 -0.19769004 0.56325835 -0.14283842 0.007719897 -0.17399445
0.14657623 -0.3036984 -0.010334451 0.080373645 0.475612 -0.9089442 0.048863325 -0.032718927
-0.032824297 -0.31733564 0.03538664 -0.1341108 0.27059588 -1.9575039 -0.025692748 -0.08866109
0.7184119 2.6741781 0.03979044 -0.029630143 -0.59602576 -0.23390496 0.07521543 0.019486774
1.1818537 2.5465639 0.117221765 0.110892385 -0.47402892 -0.8744144 0.010533095 0.06846774
1.338316 2.7523634 0.049026288 0.5010343 -0.24140613 -1.9782757 0.036186006 0.48351997
0.30980963 -0.4399701 -0.018006422 -0.27248347 0.17296697 -1.3313789 -0.0913026 -0.29740286
0.32007116 -0.45361137 -0.051857308 0.29026344 0.16787767 -1.0445646 -0.03905082 0.3791928
0.23399639 -0.49361217 -0.003912168 -0.05061559 0.03672766 -1.0811054 0.04024819 -0.043929104
1.5923883 -0.44471586 -0.09052936 0.21290953 -0.19371586 -1.2668605 -0.08663623 0.22737524
1.4648145 -0.3790002 -0.16549997 0.0801616 -0.08287617 -1.1295651 -0.072637536 0.17847969
1.2765006 -0.3662151 -0.11662219 -0.11544481 -0.014604934 -1.1476489 -0.05682037 -0.17356892
-0.009374463 -0.12071033 -0.0060148523 -0.024806207 1.1712458 -0.36114743 0.0067971568 0.025625056
-0.06604466 0.058188546 -0.005947273 -0.013498871 0.18513568 -0.12109648 0.009484879 0.017899912
00000000: ebca 383f 3f8d c83f 4f21 ffbd fba5 843e
00000010: 1ce0 d53d bada 9cbe 8e1a 10be 6038 943e
00000020: bbea b33f b31a cb3f ea95 93bd 2701 efbd
00000030: 6aed 363e 8696 c4be 34cc 0c3d 273c 1dbe
00000040: c5c0 b43f 4502 c93f ff3b 2cbe ed40 863c
00000050: 8f1c 7b3e b3d7 39bf e673 03be 3eed 95bd
00000060: 76f3 303e 9cb0 fabe cbf5 4d3c 38b3 d7be
00000070: bdd9 32be 4a85 bdbe b412 c3bc 285b c6be
00000080: a6f7 c23e 67d5 afbe fd06 cfbd 6d87 f4bd
00000090: 7010 69be a648 b7be da05 fabd 8d73 82bd
000000a0: 6a11 0a3f 0b22 c0be af6e 203d 88cb 16be
000000b0: c877 93be f520 3abf 23b6 3c3d c236 90bd
000000c0: 3544 2e3f edd3 0c3f 4881 b2bd 71b0 76bd
000000d0: 64ef 053e 44f8 18bf 8252 f4bd d27d 493c
000000e0: bfa1 833f 43c9 233f a3b5 96bd e2e8 0cbf
000000f0: f4e1 d83d 4dcd c3be 74df a6bd 4c52 08bf
00000100: c622 5c3f 4c8c 493f 74da 8ebd 440b 323f
00000110: 188c ba3d fe01 3abe 960b b5bd b2da 1c3f
00000120: fac5 a73f 4a63 00bf 899b d1bd 1459 773e
00000130: cd20 59be 46f9 12bf a26c 18be 9695 6c3e
00000140: 6214 a43f 7cdd 0bbf 63dd 08be e9a3 a8bd
00000150: 68ed 29be 5b73 aebe 0f62 c1bd 55a7 fabd
00000160: 89c6 8d3f 1f94 d0be 08f7 4bbd db9a 1e3d
00000170: 1cf4 adbd bdef f2bd 376b 90bd 64f6 803d
00000180: 76f4 5b3d 84fb 343f 35f8 16bd b8a8 47bf
00000190: 32af 5f3c 8cde 8abf 20bb 50bd 2278 2fbf
000001a0: 2bd5 923e cab8 433f 3d13 fdbd 72ef bdbd
000001b0: eecc 393d dc34 a8bf 378a c8bc eea5 e9bd
000001c0: 9adf 0a3f 159b 193f 1b94 93bd 7670 d8be
000001d0: 5809 9c3e ad60 2bbf c466 953c 3e57 9ebe
000001e0: dc3a 813f ba75 3ebf bd5c d73a 5cb4 fe3d
000001f0: 246c 0ebc 100b 89bf 572c a93d 9c95 3f3d
00000200: 5779 2d3f 7021 44bf d33d c6bd a755 a3be
00000210: 856f a7bc 36c3 aabf faaa e2bd b30e 9fbe
00000220: 26b2 f53e 5ae9 65bf 3218 24be 9845 d8bd
00000230: 9283 91be 93f4 21bf 36bc 0ebe af71 27bd
00000240: 80a6 383e 3164 43be 4f96 373d 426f 4abe
00000250: b331 103f 3c44 12be 31f7 fc3b 9a2b 32be
00000260: 1418 163e 5b7e 9bbe d451 29bc f09a a43d
00000270: 6b83 f33e 91b0 68bf e924 483d 4804 06bd
00000280: c572 06bd d179 a2be 95f1 103d 5754 09be
00000290: 8b8b 8a3e 7d8f fabf 9979 d2bc f293 b5bd
000002a0: d8e9 373f bc25 2b40 4dfb 223d eaba f2bc
000002b0: 2595 18bf c884 6fbe 8c0a 9a3d baa2 9f3c
000002c0: fb46 973f e7fa 2240 f711 f03d 8c1b e33d
000002d0: ebb3 f2be 9fd9 5fbf 0193 2c3c d138 8c3d
000002e0: f04d ab3f b926 3040 cacf 483d c943 003f
000002f0: 2b33 77be 2338 fdbf c737 143d ee8f f73e
00000300: 5e9f 9e3e c343 e1be 3482 93bc f482 8bbe
00000310: 411e 313e a06a aabf dcfc babd 3045 98be
00000320: 5ee0 a33e c03f e8be 5468 54bd 699d 943e
00000330: 20e8 2b3e 4bb4 85bf c1f3 1fbd 8f25 c23e
00000340: c09c 6f3e bcba fcbe a531 80bb 4b52 4fbd
00000350: be6f 163d a961 8abf 49db 243d 01ef 33bd
00000360: 61d3 cb3f ccb1 e3be 7567 b9bd f504 5a3e
00000370: 735d 46be 7c28 a2bf 566e b1bd 0ed5 683e
00000380: 0b7f bb3f 500c c2be d378 29be c42b a43d
00000390: fbba a9bd 9795 90bf fdc2 94bd 61c3 363e
000003a0: 5f64 a33f 8c80 bbbe 9dd7 eebd 546e ecbd
000003b0: 8849 6fbc 29e6 92bf 7abc 68bd 0dbc 31be
000003c0: 5997 19bc fa36 f7bd 3d18 c5bb 6336 cbbc
000003d0: 62eb 953f 51e8 b8be afba de3b a3eb d13c
000003e0: 6c42 87bd 1d57 6e3d 58e1 c2bb 5e2a 5dbc
000003f0: 3594 3d3e 6e01 f8bd 7766 1b3c d6a2 923c

fcs1.bias f4 [256]
-0.6503941 -0.98908544 -0.907822 -0.791762 -0.5803363 -0.13973439 -0.80901825 -0.7387174
-1.1365438 -1.1020889 -0.732657 -0.9366236 -0.267054 -0.6057392 -0.42045724 -0.5597392
-1.5235113 -0.77396595 1.0184132 -0.6312414 -0.9830861 -1.3443179 -0.38605213 -0.8531403
-0.8289666 -0.8233297 -0.5642348 -1.8966562 -0.47984338 -1.7767024 -1.0410345 -0.80539346
-1.0967684 0.18538125 -0.72986144 -0.50818723 -0.74038917 -1.1278508 0.3409768 -1.0774615
-0.15345137 -0.6703725 -0.2995212 -0.87065417 -0.9904703 -0.78930235 -0.627161 -0.83004475
0.26866516 -0.1633763 -1.3396269 -0.08008577 -1.3307606 0.2914932 -1.682903 -0.9632265
-0.36533582 -0.7901457 -0.6750868 -0.36515856 -0.15360671 -0.30113274 -0.61290413 -0.108885214
-1.217221 -0.8999424 -0.97024924 -0.8246862 -0.4093281 -0.682279 0.5731788 0.11614193
-0.5546748 -0.22554822 -0.8815004 -0.5008224 -0.9215189 0.2727933 -0.43333197 -1.3499883
-0.64681643 -1.0761746 -0.91935086 -0.94510305 -0.3016776 0.977678 -0.86756426 -0.7980545
-0.8345212 -0.8010805 -1.1252245 -0.37974522 0.75727886 0.092686564 -0.32947302 -0.2783313
-0.7497172 1.0206693 -1.062136 -0.9902304 0.3453749 -1.0898685 -0.5250299 0.8222767
-0.2482101 -0.56339276 -0.84402466 -1.20763 -0.7230419 -0.8933379 -0.6748446 -0.21247202
-0.754786 0.41926676 -0.5517515 -1.0270655 -0.9537701 -0.780012 -0.5511347 -0.9999741
-1.0613296 -1.1183329 -0.3905741 -1.2964368 -0.3673239 -0.47002843 -0.9875121 -0.5334801
-0.7667669 -0.98502535 -0.4919023 -1.0965403 -0.7227863 -1.3773217 -0.19455823 -0.77171063
-0.4789946 -0.6409713 0.0688662 -1.3431835 -0.77393365 -1.1738744 -1.5420256 -1.0176948
-0.44851595 -0.17388009 -0.7550554 -0.73831576 -1.0413953 -1.0757706 -0.87914926 -1.2362324
-0.65379614 -0.55415744 -0.74942267 -0.31859508 -0.061231952 -0.15282373 -0.61167073 -1.1615523
-0.37020433 -0.3327278 0.08715313 -0.35255533 -0.8238205 -0.4120324 -1.2305962 -0.11974728
-0.63208395 -1.1510956 -0.81526834 -0.8588109 -0.57282764 -0.95528525 -1.095159 -0.49604273
-0.15672523 -0.4158649 -0.3814854 -1.1947595 -0.80372906 -1.0120915 -0.72849524 -0.26290977
-0.86600107 -0.3023479 -0.7846082 -0.11839806 -0.84016615 -0.55061555 -1.5265079 -0.64811903
-0.6736987 0.4594127 -0.94222426 0.07867037 -0.7440787 -0.36670148 -0.82597643 -0.83832157
-0.58762515 -0.24932984 -0.98663986 -0.3420807 -0.97507966 -0.14866763 -1.6981963 0.29751655
-0.86710674 -0.045110207 -0.8489238 -0.4218821 -0.8469853 -0.79277927 -0.96587604 -0.1474492
-0.92707056 -1.0593528 -1.2902546 -0.7260884 -0.653388 -1.3062297 -1.1358773 -1.3250475
-0.95686495 -0.24475741 -1.4464735 -0.33106363 -0.5382917 -1.4222285 -0.7967129 -0.742012
-0.12644342 -1.0630951 -1.2907676 0.039073113 -0.99366736 2.5612168 -0.870002 -0.8203371
-0.5651351 -0.3890534 -0.38298538 -1.187298 -1.3526541 -0.53276557 -0.4903406 -0.41643357
-0.10206209 -0.8848654 -0.35572928 -0.7642515 -1.1924355 -0.9076881 -1.1187581 -1.6289912
00000000: 3a80 26bf b434 7dbf 0667 68bf eab0 4abf
00000010: eb90 14bf 8816 0fbe d21b 4fbf 951c 3dbf
00000020: 447a 91bf 4011 8dbf 698f 3bbf 90c6 6fbf
00000030: 4dbb 88be b911 1bbf 2c46 d7be 114b 0fbf
00000040: 6b02 c3bf a222 46bf 5d5b 823f 0999 21bf
00000050: 88ab 7bbf 9c12 acbf a0a8 c5be 6767 5abf
00000060: 2837 54bf bcc5 52bf b171 10bf a1c5 f2bf
00000070: 08ae f5be fc6a e3bf 9e40 85bf 442e 4ebf
00000080: e862 8cbf 95d4 3d3e 33d8 3abf 8f18 02bf
00000090: 258a 3dbf 6a5d 90bf 8394 ae3e 42ea 89bf
000000a0: 5b22 1dbe 889d 2bbf d85a 99be 31e3 5ebf
000000b0: 768f 7dbf b80f 4abf a08d 20bf d07d 54bf
000000c0: 7b8e 893e 1e4c 27be e578 abbf 0204 a4bd
000000d0: 5d56 aabf 993e 953e 5e69 d7bf 0396 76bf
000000e0: 4c0d bbbe fd46 4abf 7dd2 2cbf 10f6 babe
000000f0: 144b 1dbe 122e 9abe 49e7 1cbf 36ff debd
00000100: e6cd 9bbf a062 66bf 4162 78bf a31e 53bf
00000110: 7493 d1be d6a9 2ebf d9bb 123f d2db ed3d
00000120: 2bff 0dbf 1df6 66be 03aa 61bf e635 00bf
00000130: aae8 6bbf 90ab 8b3e b0dd ddbe 6bcc acbf
00000140: c395 25bf 17c0 89bf 945a 6bbf 46f2 71bf
00000150: 7d75 9abe 1b49 7a3f b118 5ebf 4d4d 4cbf
00000160: 2ea3 55bf 9d13 4dbf 5b07 90bf f76d c2be
00000170: 07dd 413f 74d2 bd3d b0b0 a8be 7181 8ebe
00000180: 77ed 3fbf 4ba5 823f 13f4 87bf bd7f 7dbf
00000190: fbd4 b03e d080 8bbf 5c68 06bf ba80 523f
000001a0: ca2a 7ebe 823a 10bf 0012 58bf 9f93 9abf
000001b0: 4619 39bf cbb1 64bf 9ec2 2cbf 4492 59be
000001c0: a839 41bf 22aa d63e 963f 0dbf e276 83bf
000001d0: 472a 74bf deae 47bf 2a17 0dbf 4dfe 7fbf
000001e0: a6d9 87bf 8825 8fbf 54f9 c7be a4f1 a5bf
000001f0: e111 bcbe 91a7 f0be 98cd 7cbf 2792 08bf
00000200: d64a 44bf 9f2a 7cbf 9eda fbbe 6f5b 8cbf
00000210: 8608 39bf 144c b0bf 463a 47be d48e 45bf
00000220: c83e f5be b216 24bf b909 8d3d 70ed abbf
00000230: 8420 46bf 8441 96bf 1861 c5bf d343 82bf
00000240: e2a3 e5be 9f0d 32be 504b 41bf 4302 3dbf
00000250: 714c 85bf dab2 89bf ed0f 61bf dd3c 9ebf
00000260: 2f5f 27bf 43dd 0dbf 2ada 3fbf e51e a3be
00000270: 5bce 7abd d37d 1cbe 7496 1cbf bfad 94bf
00000280: 6c8b bdbe 4c5b aabe 577d b23d 2282 b4be
00000290: e6e5 52bf e9f5 d2be 2d84 9dbf 103e f5bd
000002a0: 41d0 21bf 1a57 93bf 6db5 50bf 08db 5bbf
000002b0: d5a4 12bf 938d 74bf 2c2e 8cbf 50f9 fdbe
000002c0: 947c 20be 3fec d4be 0e52 c3be e1ed 98bf
000002d0: 30c1 4dbf 378c 81bf aa7e 3abf 1c9c 86be
000002e0: 3fb2 5dbf 58cd 9abe 15dc 48bf af7a f2bd
000002f0: 2115 57bf 24f5 0cbf 9c64 c3bf 21eb 25bf
00000300: 8577 2cbf 2438 eb3e 9c35 71bf ee1d a13d
00000310: f17b 3ebf 4cc0 bbbe 3173 53bf 3e9c 56bf
00000320: 9a6e 16bf 5250 7fbe 6e94 7cbf 3425 afbe
00000330: d29e 79bf 543c 18be 7f5e d9bf 1754 983e
00000340: b5fa 5dbf 7bc5 38bd 1253 59bf ee00 d8be
00000350: 07d4 58bf 95f3 4abf a743 77bf ecfc 16be
00000360: 7f54 6dbf df98 87bf 1027 a5bf eee0 39bf
00000370: 7044 27bf 8932 a7bf 6d64 91bf 289b a9bf
00000380: 1af5 74bf b0a1 7abe 0b26 b9bf 2c81 a9be
00000390: 7ccd 09bf 950b b6bf 60f5 4bbf 80f4 3dbf
000003a0: 627a 01be 8013 88bf df37 a5bf 210b 203d
000003b0: fc60 7ebf faea 2340 73b8 5ebf 9d01 52bf
000003c0: b2ac 10bf 0232 c7be a916 c4be 62f9 97bf
000003d0: c523 adbf 5363 08bf ec0d fbbe c836 d5be
000003e0: ee05 d1bd 8a86 62bf 2622 b6be fca5 43bf
000003f0: baa1 98bf 3f5e 68bf 7733 8fbf c982 d0bf

fc2.weight f4 [128, 260]
-0.048383202 0.000918691 0.0052173687 -0.07993706 -0.015086701 -0.14752913 -0.05780046 -0.061674874
-0.0878199 -0.08577136 -0.07314996 -0.061538298 -0.06555738 -0.057639323 -0.07674433 -0.096533485
-0.06536468 0.029447716 -0.15018412 0.0035183541 -0.05350203 -0.046805453 -0.045296296 -0.015169896
0.02290334 -0.15430544 -0.073338166 -0.19940256 -0.1473651 -0.038361393 0.036078762 -0.06270327
-0.0795625 -0.056130484 -0.09902282 -0.011176377 -0.013168489 0.040445615 -0.060852993 0.0018639991
-0.0675361 -0.014745815 -0.06612872 -0.089919336 0.021305934 0.02895645 -0.024872348 0.026335051
-0.16861185 -0.035944745 -0.018564818 0.02352027 -0.085362524 -0.007480671 0.03200462 -0.17247134
-0.11940275 0.0067533082 -0.14090098 0.053810686 0.012910598 -0.13619539 -0.04735167 0.030780645
-0.005557966 -0.25079775 0.021028852 -0.09350069 -0.078249 -0.10932631 -0.12213869 -0.011768298
0.02392077 0.00014811076 -0.087561145 -0.031482358 -0.0038538 -0.1578947 -0.024484126 0.038937468
-0.11004272 -0.07161064 -0.07024534 -0.019724922 -0.1957428 -0.1120832 0.03287313 -0.07638972
0.046911903 -0.0401496 0.061645865 -0.075570166 -0.0303803 0.006008204 -0.04973774 -0.03380838
-0.02259757 -0.16020581 0.016021704 -0.08362416 -0.030398736 0.028941289 -0.17212474 -0.16808316
0.019607976 -0.1358379 -0.209253 -0.17750004 -0.03911118 -0.08260854 -0.10259515 -0.040101916
-0.15083729 -0.1678965 -0.023909794 -0.083550625 -0.02607052 0.038292367 0.0071734954 -0.14181586
0.012639236 -0.06703495 0.03766545 0.16782835 -0.070380524 0.027983416 0.057556666 -0.20095016
-0.04762629 -0.087851085 -0.0349809 -0.09782319 -0.010074575 -0.063785605 0.009719247 0.0072267973
-0.070610985 -0.13320915 -0.00372539 -0.028487058 -0.05981196 -0.06889029 -0.056988463 -0.047404278
-0.05555988 0.0596026 -0.038259435 -0.06618903 0.066611625 0.06737869 0.07668518 -0.08673739
-0.16894004 0.0017133106 0.04833825 -0.10351557 0.057615638 -0.04066629 -0.012054251 -0.17190605
0.0052631474 -0.10180746 -0.12303046 0.0011391288 0.023247443 -0.09530926 -0.058705024 0.045027364
-0.012167901 -0.07044679 -0.16988981 0.08282301 -0.09257735 0.041675027 0.048035152 -0.17301218
-0.079845786 -0.100467585 0.009477919 -0.11309208 -0.09995817 -0.01705996 -0.12370496 -0.001336556
0.041179042 -0.088164225 -0.037285082 -0.075510524 -0.123980895 0.068336286 -0.03597094 -0.06971423
0.010072491 -0.07062932 -0.058279905 -0.1620559 -0.07643645 0.039354164 -0.083364524 -0.086399354
-0.24956328 -0.099258535 -0.017421773 0.0045245066 -0.007572321 -0.007876355 -0.04257667 -0.037939098
-0.036252055 0.022150751 -0.019046562 -0.04921613 0.043835796 -0.03486166 0.13546592 -0.37788326
-0.04988914 -0.1990099 -0.1530599 -0.20246552 -0.018491415 -0.008398509 0.01974882 -0.06113736
-0.20626038 -0.036188107 -0.11082753 -0.08195222 -0.09593135 -0.04084483 -0.15749112 0.009861778
0.004765434 -0.118369095 0.13978589 -0.091418356 -0.07278882 -0.18506536 0.0018516742 -0.0052549955
0.03190293 -0.0627832 0.0008065884 0.011135017 0.080377564 -0.030613698 -0.10255002 -0.08844022
-0.25540307 -0.05225431 0.037974995 -0.10660811 -0.012070359 -0.029270979 -0.103793085 -0.064584374
00000000: 772d 46bd 4fd4 703a 76f6 aa3b 0bb6 a3bd
00000010: 362e 77bc e011 17be 2dc0 6cbd cb9e 7cbd
00000020: ebda b3bd e5a8 afbd a5cf 95bd 950f 7cbd
00000030: f342 86bd 3617 6cbd 222c 9dbd 59b3 c5bd
00000040: ebdd 85bd 563c f13c dec9 19be 3094 663b
00000050: f224 5bbd 13b7 3fbd 9c88 39bd 288b 78bc
00000060: c99f bb3c 3f02 1ebe 5232 96bd 2f30 4cbe
00000070: e0e6 16be d620 1dbd 53c7 133d 926a 80bd
00000080: aaf1 a2bd 14e9 65bd 7acc cabd 1f1d 37bc
00000090: a5c0 57bc 4daa 253d fd40 79bd 6e51 f43a
000000a0: 5e50 8abd 6e98 71bc 7f6e 87bd a127 b8bd
000000b0: c889 ae3c 1436 ed3c 18c1 cbbc 9bbc d73c
000000c0: 96a8 2cbe cc3a 13bd 3f15 98bc 95ad c03c
000000d0: 8cd2 aebd 6b20 f5bb 4717 033d 549c 30be
000000e0: 6e89 f4bd db4a dd3b 5948 10be 9868 5c3d
000000f0: f986 533c ce76 0bbe d3f3 41bd b127 fc3c
00000100: 991f b6bb 9068 80be b344 ac3c 4a7d bfbd
00000110: 0341 a0bd 79e6 dfbd d923 fabd d2cf 40bc
00000120: 7ef5 c33c 2e4e 1b39 4253 b3bd a5f3 00bd
00000130: 0990 7cbb 26af 21be ef92 c8bc e57c 1f3d
00000140: 145e e1bd 99a8 92bd cadc 8fbd 2996 a1bc
00000150: cd70 48be e08b e5bd faa5 063d 3772 9cbd
00000160: b226 403d e873 24bd 6080 7c3d 88c4 9abd
00000170: 1be0 f8bc 78e0 c43b cdb9 4bbd a87a 0abd
00000180: 8a1e b9bc fe0c 24be f33f 833c 2543 abbd
00000190: c506 f9bc 4816 ed3c 7841 30be fe1d 2cbe
000001a0: e8a0 a03c 1719 0bbe 6b46 56be 92c2 35be
000001b0: 0b33 20bd ab2e a9bd 681d d2bd e841 24bd
000001c0: 1775 1abe 0fed 2bbe 79de c3bc 971c abbd
000001d0: d891 d5bc 75d8 1c3d a40f eb3b 2d38 11be
000001e0: cc14 4f3c 9f49 89bd 1647 1a3d 32db 2b3e
000001f0: aa23 90bd 7a3d e53c 8ac0 6b3d e1c5 4dbe
00000200: c913 43bd 45eb b3bd 2248 0fbd 8657 c8bd
00000210: d50f 25bc 07a2 82bd 7a3d 1f3c c5ce ec3b
00000220: 7e9c 90bd fb67 08be ac25 74bb b15d e9bc
00000230: 63fd 74bd 5a16 8dbd bc6c 69bd fd2a 42bd
00000240: c292 63bd db21 743d edb5 1cbd 1d8e 87bd
00000250: ad6b 883d d7fd 893d 1f0d 9d3d 5fa3 b1bd
00000260: 9efe 2cbe 2a91 e03a 54fe 453d f9ff d3bd
00000270: 60fe 6b3d b291 26bd 317f 45bc 2408 30be
00000280: 7b76 ac3b 6e80 d0bd 65f7 fbbd d24e 953a
00000290: 6c71 be3c 8031 c3bd ae74 70bd 9d6e 383d
000002a0: e05b 47bc 6846 90bd 98f7 2dbe 1c9f a93d
000002b0: 3299 bdbd 6fb3 2a3d 82c0 443d 1b2a 31be
000002c0: 3086 a3bd f3c1 cdbd 4649 1b3c d29c e7bd
000002d0: deb6 ccbd 54c1 8bbc 0759 fdbd 612f afba
000002e0: 5bab 283d 728f b4bd 3eb8 18bd 43a5 9abd
000002f0: b2e9 fdbd e5f3 8b3d 4456 13bd 56c6 8ebd
00000300: 1707 253c 1ba6 90bd e9b6 6ebd fbf1 25be
00000310: b78a 9cbd d531 213d 05bb aabd 25f2 b0bd
00000320: 848d 7fbe 0f48 cbbd 1bb8 8ebc 5042 943b
00000330: 3c21 f8bb d40b 01bc e064 2ebd 0766 1bbd
00000340: 097d 14bd 7e75 b53c 8907 9cbc da96 49bd
00000350: 2a8d 333d 1acb 0ebd 94b7 0a3e ea79 c1be
00000360: 8e58 4cbd 40c9 4bbe bcbb 1cbe 1f53 4fbe
00000370: 4f7b 97bc e699 09bc 47c8 a13c 2b6b 7abd
00000380: ec35 53be fb39 14bd 8bf9 e2bd 91d6 a7bd
00000390: a877 c4bd e94c 27bd 5a45 21be 4b93 213c
000003a0: 5c27 9c3b 7f6b f2bd 0824 0f3e 8c39 bbbd
000003b0: 4e12 95bd c681 3dbe e0b3 f23a 1932 acbb
000003c0: a6ac 023d 7a94 80bd 3b71 533a a56f 363c
000003d0: fe9c a43d 94c9 fabc bf05 d2bd 2520 b5bd
000003e0: 31c4 82be 9e08 56bd ab8b 1b3d 5a55 dabd
000003f0: c1c2 45bc b1c9 efbc 7891 d4bd d044 84bd

fc2.bias f4 [128]
-0.2268032 -1.7610703 -0.08791071 -0.055634625 -0.10829809 -0.03691246 -0.16229527 -0.06925455
-0.071155734 -0.21509968 -0.15400445 0.777512 -0.23127528 -0.08663203 -0.16264808 -0.13032314
-0.07302263 -0.16465126 -0.09920233 -0.09711541 -0.13938351 -0.103749685 -0.14011054 -0.1270267
-0.1220785 -0.22633989 -0.4329728 -0.11711994 -0.10841425 -0.13175656 -0.11258139 -0.07868056
-0.14603148 -0.11371928 -0.35878557 -0.15684523 -0.1059613 -0.12782983 -0.16672917 -0.22418813
-0.1978709 -0.14767994 -0.09722665 -0.47924963 -0.1935896 -0.12263182 -0.18665256 -0.18621446
-0.15991017 -0.110953666 -0.47344384 -0.13700846 -0.30039844 -0.13444194 -0.32166022 -0.1723555
-0.040826406 -0.1561427 -0.072679475 -0.10788436 -0.08960364 -0.0016491308 -0.14210284 -0.065884896
-0.15878287 0.2054773 -0.13721871 -0.1334556 -0.17605312 -0.16030729 -0.15474068 -0.15419924
-0.15232767 -0.13667212 0.1967781 -0.18041466 -0.12934902 -0.11890369 0.9131403 -0.41799468
-0.3676033 -0.23372288 -0.08888041 -0.086682394 -0.13757439 -0.3331645 -0.13771251 -0.06159512
-0.12035748 -1.5300817 -0.15094672 -0.060059518 -0.1740382 -0.18873623 0.5996792 -0.09992632
-0.110453084 -0.06688833 -0.15408194 -0.9186405 -0.13981283 -0.10059353 -0.12296798 -0.16040613
-0.08437184 0.9556512 -0.18709369 -0.14803168 -0.16027497 -0.31797656 -0.05226225 -0.130647
-0.15572794 -0.18762733 -0.22443683 -0.16660622 -0.20954368 -0.15522218 -0.16722809 -0.10335262
-0.078553796 -0.13867894 -0.023982475 0.24926361 -0.13842009 -0.070224516 -0.12861612 -0.14515276
00000000: 193f 68be c06a e1bf 880a b4bd 22e1 63bd
00000010: 64cb ddbd 8531 17bd bb30 26be 54d5 8dbd
00000020: 19ba 91bd 1743 5cbe 58b3 1dbe 070b 473f
00000030: 6dd3 6cbe 226c b1bd 388d 26be 6e73 05be
00000040: e38c 95bd 579a 28be 972a cbbd 72e4 c6bd
00000050: 8dba 0ebe b77a d4bd 2379 0fbe 4a13 02be
00000060: 4b04 fabd a5c5 67be 9cae ddbe 94dc efbd
00000070: 4a08 debd 31eb 06be 1291 e6bd 4623 a1bd
00000080: 4789 15be a7e5 e8bd beb2 b7be 099c 20be
00000090: 3d02 d9bd d3e5 02be 0dbb 2abe 9391 65be
000000a0: ab9e 4abe 6939 17be c41e c7bd 3560 f5be
000000b0: 5a3c 46be 6426 fbbd d921 3fbe 01af 3ebe
000000c0: 7ebf 23be ad3b e3bd 3b67 f2be f24b 0cbe
000000d0: d3cd 99be 26ab 09be a6b0 a4be f67d 30be
000000e0: 9739 27bd dfe3 1fbe fad8 94bd 7af2 dcbd
000000f0: 1d82 b7bd a627 d8ba 6883 11be a9ee 86bd
00000100: fa97 22be a468 523e 1083 0cbe 96a8 08be
00000110: 4547 34be 9827 24be 5774 1ebe 68e6 1dbe
00000120: c9fb 1bbe c7f3 0bbe 3380 493e 9fbe 38be
00000130: 1274 04be c783 f3bd 90c3 693f 6603 d6be
00000140: 8036 bcbe 0d55 6fbe ef06 b6bd 8a86 b1bd
00000150: 4de0 0cbe 8a94 aabe 8204 0dbe 2a4b 7cbd
00000160: fc7d f6bd b8d9 c3bf c791 1abe f800 76bd
00000170: 1237 32be 1244 41be 9384 193f 2ca6 ccbd
00000180: 3a35 e2bd c0fc 88bd a8c7 1dbe 062c 6bbf
00000190: 182b 0fbe fb03 cebd a3d6 fbbd 8141 24be
000001a0: 25cb acbd 8fa5 743f 7d95 3fbe 9e95 17be
000001b0: 1f1f 24be d3cd a2be f110 56bd 54c8 05be
000001c0: 2577 1fbe 6121 40be c5d2 65be d29a 2abe
000001d0: 9e92 56be 90f2 1ebe d73d 2bbe 8aaa d3bd
000001e0: d0e0 a0bd da01 0ebe e576 c4bc f63e 7f3e
000001f0: ffbd 0dbe dfd1 8fbd f2b3 03be eda2 14be

fc3.weight f4 [1, 128]
-0.0090429345 0.007938615 0.006004919 0.018302793 0.027014047 -0.011661663 0.008198133 -0.00013792896
-0.015867833 0.006372621 0.005928143 -0.010296645 -0.021382885 0.011544552 0.011819032 -0.024968307
0.023155352 -0.0065378984 0.016308973 0.0015791501 0.029069362 0.0042604995 0.010327922 -0.0012421013
0.018991519 -0.021211186 -0.017319698 -0.021113405 0.0003955727 -0.02419329 0.0042418037 0.013715537
0.0076252692 -0.012347101 -0.015102657 -0.011764488 0.014145694 -0.021205857 0.008732207 -0.013879897
0.027447376 -0.020590594 -0.0029764604 -0.0064397133 0.004227607 0.022621585 0.012190309 0.03149138
0.013310096 0.025067305 0.010662242 0.03102726 -0.0018841543 -0.008774666 -0.012171227 0.011089984
0.0156043405 0.028598618 -0.008467993 -0.023933483 0.026299354 0.028828558 0.01043787 0.029027684
0.007833167 -0.01791322 -0.031498596 0.009416453 -0.026945388 0.014474525 0.020329604 -0.011999943
-0.023684876 0.0019147708 -0.011977228 0.004851217 0.008553274 0.011878807 -0.03770132 -0.02644229
0.013535708 0.0024147925 -0.000821037 -0.019362941 -0.0027351608 0.0077211624 -0.0115423845 0.015425861
-0.013206426 -0.01231053 0.027369216 0.025263947 0.0057873772 0.023387475 -0.07123673 -0.0039795036
0.020000502 0.015104172 -0.013398239 -0.020647634 0.0074940003 -0.012650705 -0.018053897 -0.004265024
-0.012854372 -0.013984797 -0.021744674 -0.0013663786 -0.015037912 0.02459784 0.014344914 0.017133234
0.003013065 -0.025938611 0.0049995612 0.000756373 -0.022011632 0.004298908 -0.0019077909 -0.0023126015
0.020082386 -0.027015235 0.0016561499 -0.0104505615 0.007952648 -0.010440237 -0.011801873 0.020731455
00000000: d128 14bc f710 023c e9c4 c43b bdef 953c
00000010: 904c dd3c 8f10 3fbc 7651 063c 06a1 10b9
00000020: 42fd 81bc 6bd1 d03b de40 c23b 42b3 28bc
00000030: 292b afbc 5c25 3d3c 9da4 413c 568a ccbc
00000040: 4bb0 bd3c de3b d6bb 659a 853c 7cfb ce3a
00000050: df22 ee3c a99b 8b3b 7236 293c 01ce a2ba
00000060: 1a94 9b3c 15c3 adbc 0ae2 8dbc 05f6 acbc
00000070: de64 cf39 0231 c6bc d4fe 8a3b 22b7 603c
00000080: 65dd f93b 7f4b 4abc 2271 77bc d7bf 40bc
00000090: 57c3 673c e8b7 adbc 8811 0f3c 8268 63bc
000000a0: 52d9 e03c 9bad a8bc b810 43bb 3b04 d3bb
000000b0: bd87 8a3b e750 b93c ddb9 473c 1bfd 003d
000000c0: 9712 5a3c f359 cd3c afb0 2e3c e12c fe3c
000000d0: baf5 f6ba 9ec3 0fbc d369 47bc c4b2 353c
000000e0: 59a9 7f3c a647 ea3c 56bd 0abc 2710 c4bc
000000f0: be71 d73c de29 ec3c 9a03 2b3c 77cb ed3c
00000100: af56 003c bfbe 92bc ac04 01bd 7747 1a3c
00000110: 93bc dcbc 8f26 6d3c 458a a63c 699b 44bc
00000120: c906 c2bc 0cf9 fa3a 233c 44bc f5f6 9e3b
00000130: 0823 0c3c 549f 423c b36c 1abd 809d d8bc
00000140: e0c4 5d3c 7f41 1e3b dc3a 57ba 089f 9ebc
00000150: 6240 33bb ce01 fd3b 451c 3dbc c0bc 7c3c
00000160: c45f 58bc 1bb2 49bc 6835 e03c 56f6 ce3c
00000170: 0aa4 bd3b 1797 bf3c 90e4 91bd 7f66 82bb
00000180: 18d8 a33c 7d77 773c 4a84 5bbc 3a25 a9bc
00000190: 3b90 f53b e744 4fbc c4e5 93bc 9dc1 8bbb
000001a0: 259b 52bc 7d20 65bc e321 b2bc 0f18 b3ba
000001b0: 9361 76bc 6981 c93c ee06 6b3c ff5a 8c3c
000001c0: d876 453b 367d d4bc 5cd3 a33b 5547 463a
000001d0: bd51 b4bc dbdd 8c3b d70e faba 048f 17bb
000001e0: d183 a43c 0e4f ddbc 2b13 d93a d538 2bbc
000001f0: d34b 023c 870d 2bbc a55c 41bc 03d5 a93c
