checkpoint_critic1.pth (torch_old, 185256 bytes, 5 tensors)

fcs1.weight f4 [256, 48]
0.31558973 0.17259748 -0.014389124 -0.049436938 -0.062951475 -0.17079815 -0.0305393 -0.019023106
0.25444552 0.21135576 -0.08633333 0.019193714 -0.0016111396 -0.15646814 0.020103164 -0.017656082
0.3321574 0.18441315 -0.036086928 -0.012018688 0.05393194 -0.061359264 0.0037393586 -0.10161312
0.27316606 -0.039544445 -0.014798963 -0.028616473 -0.0072748247 -0.23460111 -0.051182773 0.0052605174
0.1857851 -0.014613503 -0.0073384745 -0.008700808 -0.04735151 -0.1304838 -0.028333817 0.047002982
0.21660629 -0.021318322 -0.0035400868 0.019559849 -0.09672872 -0.062477164 0.0033636924 0.09640108
0.093358286 0.025651293 0.014412893 -0.071617045 0.18013498 0.421323 -0.017725397 0.0009025729
0.12761632 0.0074308063 -0.0009730258 -0.07695197 0.25951922 0.22275196 -0.008865093 -0.05902885
0.09981794 -0.185425 0.0232291 0.009041544 1.0665466 -1.1488024 0.0045807 -0.07372858
0.34084636 0.40438318 0.021035511 0.015619715 -0.26138073 0.4447466 -0.025468824 0.005110493
0.6570255 0.25789398 -0.037676487 0.031411048 -0.31955945 0.26445213 0.0015557228 -0.0086357435
1.4698163 0.51868343 0.017361665 0.029327217 -1.0603949 -1.0857798 -0.0033596123 0.053574003
0.48118073 0.83968973 0.036312662 0.2908599 -0.21927235 -1.2064551 0.02221246 0.38534752
0.50184655 0.9452543 -0.14383034 0.12535852 -0.0129300095 -0.9997685 -0.04473571 0.10401328
0.5391003 0.7686195 -0.14630917 -0.5318502 0.2612926 -0.6147447 -0.056010514 -0.41836968
-0.27348724 0.7066343 -0.04697486 -0.2440418 0.22423115 -1.19219 0.033985607 -0.32163528
-0.23459598 0.8875134 -0.077618636 0.2626433 0.037852317 -1.0197409 -0.091499485 0.2709969
-0.18890038 0.8359096 -0.034517232 -0.22312437 -0.24074095 -0.5779422 -0.013658537 -0.15840484
0.077344656 0.31602916 0.093145266 -0.13487813 -0.002918496 -0.06436635 0.05604421 -0.111183286
0.06285967 0.27067706 -0.03713637 0.1661915 -0.17307554 -0.9301106 0.022062613 0.053099133
0.21270905 0.24214688 0.053769328 -0.04124394 0.13157159 -0.032521985 -0.0073100654 0.0042059827
0.25364742 1.3740176 -0.045793634 0.47177646 -0.029845329 -0.15543327 -0.010368227 0.5208916
0.5819006 1.9220036 0.076425895 1.0717505 0.17465843 -0.89557207 -0.030263528 1.0293214
0.7608147 1.3047578 -0.091206856 -1.3130637 -0.10238188 -0.053291786 -0.10404784 -1.3305761
-0.38900816 0.50740886 0.031742327 0.3497272 -0.030073917 0.004151862 -0.04155381 0.32480663
-0.33741125 0.6800819 0.0016299405 0.63048303 0.050282046 -2.7279718 0.014437817 0.71940446
-0.2818941 0.9626969 0.08642331 -1.1230428 0.5925061 0.58594567 0.13058425 -1.1163554
-0.30012193 -0.4074376 0.0052190907 0.03214605 0.009323698 0.06865968 0.009112144 0.046612274
0.102705896 -0.3860029 -0.0683544 -0.017249594 0.03471816 -2.8129742 0.024510534 0.08106825
0.4145493 -0.31576437 -0.025385514 -0.033438265 -0.57038385 0.5194078 0.034416042 -0.091562636
-0.046291273 -0.34340727 -0.022394015 -0.090679765 0.1308348 0.21524034 -0.009581941 -0.040247045
0.20198464 -0.68963253 -0.04365622 0.040379338 -0.4257242 -0.50933176 -0.028223248 0.0717767
00000000: fa94 a13e 65bd 303e 5cc0 6bbc 637e 4abd
00000010: b4ec 80bd b6e5 2ebe 8e2d fabc 58d6 9bbc
00000020: af46 823e a56d 583e 87cf b0bd 233c 9d3c
00000030: e02c d3ba 2f39 20be 64af a43c 7da3 90bc
00000040: 8910 aa3e cdd6 3c3e e3cf 13bd 08ea 44bc
00000050: bde7 5c3d da53 7bbd 0710 753b 8a1a d0bd
00000060: 6cdc 8b3e 5bf9 21bd 5a77 72bc 186d eabc
00000070: a761 eebb 463b 70be 07a5 51bd 6b60 ac3b
00000080: 733e 3e3e 796d 6fbc 9677 f0bb d58d 0ebc
00000090: a8f3 41bd 8c9d 05be 521c e8bc 3386 403d
000000a0: 0ace 5d3e c3a3 aebc cd00 68bb fa3b a03c
000000b0: b519 c6bd 0ee8 7fbd 6571 5c3b ee6d c53d
000000c0: a132 bf3d a922 d23c 0e24 6c3c f5ab 92bd
000000d0: 4e75 383e a6b7 d73e da34 91bc a49a 6c3a
000000e0: daad 023e 1f7e f33b a812 7fba ff98 9dbd
000000f0: b4df 843e 1719 643e e53e 11bc 3cc8 71bd
00000100: 596d cc3d 0de0 3dbe f44a be3c fc22 143c
00000110: 9984 883f f50b 93bf b219 963b 02ff 96bd
00000120: 6a83 ae3e 500b cf3e aa52 ac3c d5e9 7f3c
00000130: b2d3 85be d4b5 e33e ffa3 d0bc ec75 a73b
00000140: d332 283f ae0a 843e a952 1abd dfa8 003d
00000150: 4c9d a3be 4566 873e 65e9 cb3a ef7c 0dbc
00000160: f122 bc3f 70c8 043f 0d3a 8e3c a23f f03c
00000170: 05bb 87bf d5fa 8abf f12c 5cbb 6a70 5b3d
00000180: 525d f63e e8f5 563f 96bc 143d 97eb 943e
00000190: ee88 60be 1f6d 9abf e8f6 b53c 454c c53e
000001a0: 0479 003f 30fc 713f 4348 13be fc5d 003e
000001b0: 64d8 53bc d4f0 7fbf cb3c 37bd ea04 d53d
000001c0: 7a02 0a3f 3fc4 443f 12d2 15be 5627 08bf
000001d0: 25c8 853e e95f 1dbf 486b 65bd 8d34 d6be
000001e0: 8506 8cbe fce5 343f b668 40bd 18e6 79be
000001f0: da9c 653e af99 98bf 7e34 0b3d 61ad a4be
00000200: ee39 70be 1434 633f 85f6 9ebd 2f79 863e
00000210: 080b 1b3d df86 82bf 1564 bbbd 1bc0 8a3e
00000220: 1a6f 41be 2cfe 553f f161 0dbd b77a 64be
00000230: cc84 76be 05f4 13bf 0ec8 5fbc e134 22be
00000240: e066 9e3d 93ce a13e f2c2 be3d 7e1d 0abe
00000250: 3d44 3fbb 81d2 83bd 9d8e 653d 10b4 e3bd
00000260: 92bc 803d 2f96 8a3e 4e1c 18bd 1b2e 2a3e
00000270: b73a 31be ba1b 6ebf a7bc b43c 7a7e 593d
00000280: 67d0 593e 5af5 773e 3a3d 5c3d 68ef 28bd
00000290: b4ba 063e c635 05bd 4689 efbb 57d2 893b
000002a0: 13de 813e cfdf af3f 1b92 3bbd af8c f13e
000002b0: 317e f4bc e629 1fbe 7fdf 29bc 2759 053f
000002c0: 70f7 143f 3704 f63f 2e85 9c3d 1f2f 893f
000002d0: a9d9 323e 3644 65bf 38eb f7bc cec0 833f
000002e0: c1c4 423f 4e02 a73f a9ca babd 7912 a8bf
000002f0: 97ad d1bd 7d48 5abd 0917 d5bd 5150 aabf
00000300: 142c c7be 8ce5 013f 3e04 023d 720f b33e
00000310: 935d f6bc 580c 883b 5434 2abd 0e4d a63e
00000320: 2bc1 acbe d919 2e3f baa3 d53a 5667 213f
00000330: 8cf4 4d3d 1797 2ec0 988c 6c3c e42a 383f
00000340: 6c54 90be 4e73 763f b4fe b03d debf 8fbf
00000350: 7bae 173f 8900 163f e1b7 053e bce4 8ebf
00000360: 95a9 99be a99b d0be e804 ab3b 94ab 033d
00000370: 6cc2 183c 729d 8c3d 1a4b 153c 83ec 3e3d
00000380: 7857 d23d 2ca2 c5be 64fd 8bbd 054f 8dbc
00000390: a134 0e3d c507 34c0 51ca c83c 1c07 a63d
000003a0: ce3f d43e deab a1be 48f5 cfbc 90f6 08bd
000003b0: ad04 12bf e9f7 043f d6f7 0c3d 3185 bbbd
000003c0: eb9b 3dbd 14d3 afbe a773 b7bc 50b6 b9bd
000003d0: 8ff9 053e f767 5c3e 93fd 1cbc 16da 24bd
000003e0: 10d5 4e3e c28b 30bf ddd0 32bd ce64 253d
000003f0: 86f8 d9be 9163 02bf 7134 e7bc aaff 923d

fcs1.bias f4 [256]
-0.2883588 -0.22640973 -0.85745853 -0.43632975 -0.8668961 -1.2703135 -0.8930894 -0.5362181
-0.6485963 -1.0332383 -1.2765528 0.9351127 -0.5687607 -0.16706888 -0.22218175 0.7239788
-0.84143054 -0.6464291 -0.44645122 -0.5220362 -0.3789343 -0.96129733 -0.8062156 -1.4583732
-0.63546354 -0.26064354 -0.012090731 -1.9078422 -0.7345922 -1.0220625 -0.41351172 -0.8962514
-0.69054896 -0.1571177 -0.5182161 -0.91290545 -1.2003295 -0.6651701 0.5636699 -0.27298
-0.65171003 0.060811285 -0.2827714 0.5952391 -0.69056785 -0.99258465 -0.9085022 -1.1676234
-0.75460434 -0.47312546 -1.7659597 0.618123 -0.9406244 -0.56958956 -0.69188714 -0.24257606
-0.9211344 -0.8688427 -0.9106998 -0.75261843 -1.133333 -0.9783764 -0.5287792 -0.54199827
-0.024043882 -0.6302887 -1.3792871 -0.7457885 -1.0650207 -1.1526563 -0.7001021 -0.31452143
-2.0084016 -0.9157481 -1.371715 -0.957711 -0.6275026 -0.15274079 -0.9689167 -0.9795224
-0.6205705 -0.74252117 -0.818295 -0.12348313 -0.047994632 -0.18153106 -1.6291652 -0.7966878
-0.45773113 -1.016997 -0.39163506 -1.1068803 -0.6377531 0.5810938 -0.591009 -0.41668138
-0.9334719 0.07292707 -0.84373575 -0.4010376 -0.5148244 -0.53214186 -0.7646736 0.7148629
-0.70962566 -1.9314013 -0.72950804 -0.85838044 -0.06736917 -1.1226116 -0.9968958 -0.61599356
-1.1171172 -0.54401416 -0.7673399 -0.48550662 -0.5685736 -1.0936478 -0.79119354 -0.65164065
-0.14758246 0.5616113 -0.6846308 -0.3189883 -0.95698076 -0.5707083 -0.5233838 0.0083337305
-0.7422462 -1.1299466 -0.64796317 -0.57674235 -0.9547464 -0.90762836 -0.87115514 -0.51683915
-1.2935019 -0.29405558 -0.5512557 -1.0821187 0.0052557597 -0.32744905 -1.0329542 -1.0693092
-0.5836182 -0.44295678 -0.92103994 -0.74308866 -0.43532476 -1.3298084 -0.56728595 -1.0678496
-0.5910462 -0.58377445 0.22420043 -0.8609789 0.11605929 -0.595832 -0.6513148 -0.77402633
0.1927756 0.6606503 0.38192537 -0.97326624 -1.3229495 -0.6845021 -0.7411275 -0.56837624
-0.7544831 -1.1775153 -0.2283873 0.24679208 -0.3284779 -0.8617386 -0.3028833 -0.35201654
-0.52045053 -0.87562335 -1.2468779 -0.39362386 -0.6118418 -1.3679404 -1.4183396 -2.3512683
-0.76633847 -0.98291576 -0.02099354 -1.2237991 -0.42403403 -0.10530917 -1.9663553 -0.634549
-0.9469971 0.3485732 0.0072395415 -0.032715145 -1.1652783 -0.27732685 -0.6152026 -0.33506954
-0.3428359 -0.7878061 -0.8429307 -0.26801336 0.2863363 -1.4818851 -0.5679183 -0.6714092
-1.0630504 -0.26802808 -0.3009828 -0.47934508 -0.6944361 -0.16594723 -1.0883065 0.054344576
-1.2851595 -0.7472965 -1.2895864 -0.84860414 -0.7688713 -1.6386998 -0.47080347 -0.62386197
-0.32175633 -0.9109552 -0.29788637 -0.2704181 0.12101897 -0.70501506 -0.10423673 -0.46756324
-1.004977 -0.60777986 -0.27798182 0.121963486 -0.18719998 -1.7467164 1.0221889 -0.7600104
-0.57587236 -0.47834766 0.14288272 -1.0212026 -0.8518217 -0.57506657 -0.24824773 -1.1182367
-0.67819774 -0.3625338 -1.4810579 0.12327072 -0.27319697 -1.0716721 -0.06543561 -1.4021323
00000000: c4a3 93be f4d7 67be 6782 5bbf 9d66 dfbe
00000010: e7ec 5dbf a299 a2bf 82a1 64bf 9745 09bf
00000020: 680a 26bf 2741 84bf 1566 a3bf 8c63 6f3f
00000030: 4d9a 11bf 1b14 2bbe 9d83 63be ad56 393f
00000040: fe67 57bf 617c 25bf 4195 e4be 2aa4 05bf
00000050: ad03 c2be 9517 76bf 2564 4ebf f9ab babf
00000060: bdad 22bf 1273 85be 3418 46bc 2c34 f4bf
00000070: 3c0e 3cbf f2d2 82bf cfb7 d3be bb70 65bf
00000080: d1c7 30bf 76e3 20be cfa9 04bf 2cb4 69bf
00000090: 66a4 99bf 9648 2abf ac4c 103f 09c4 8bbe
000000a0: 78d6 26bf 4115 793d 6ac7 90be 9761 183f
000000b0: 0ec9 30bf 071a 7ebf 9a93 68bf af74 95bf
000000c0: c02d 41bf 803d f2be f80a e2bf 4f3d 1e3f
000000d0: c3cc 70bf 9fd0 11bf 841f 31bf dc65 78be
000000e0: 77cf 6bbf 7a6c 5ebf 9f23 69bf 9aab 40bf
000000f0: 0e11 91bf e076 7abf 135e 07bf 66c0 0abf
00000100: adf7 c4bc 9a5a 21bf 7b8c b0bf ffeb 3ebf
00000110: 9952 88bf 3e8a 93bf e439 33bf f408 a1be
00000120: a789 00c0 786e 6abf 5b94 afbf 8c2c 75bf
00000130: 03a4 20bf 1568 1cbe ed0a 78bf fbc1 7abf
00000140: b5dd 1ebf de15 3ebf c87b 51bf b9e4 fcbd
00000150: 0596 44bd 47e3 39be 7c88 d0bf bbf3 4bbf
00000160: bc5b eabe f52c 82bf 6484 c8be 41ae 8dbf
00000170: ca43 23bf 90c2 143f 5e4c 17bf 4357 d5be
00000180: 04f8 6ebf ca5a 953d 11ff 57bf cd54 cdbe
00000190: 88cb 03bf 733a 08bf a6c1 43bf 4101 373f
000001a0: 07aa 35bf 2838 f7bf 0ac1 3abf d2be 5bbf
000001b0: d9f8 89bd bdb1 8fbf 9034 7fbf c1b1 1dbf
000001c0: b2fd 8ebf 8344 0bbf 6370 44bf 5394 f8be
000001d0: 0a8e 11bf a7fc 8bbf a98b 4abf ecd1 26bf
000001e0: db1f 17be c2c5 0f3f f743 2fbf 6f52 a3be
000001f0: b1fc 74bf f019 12bf 7bfc 05bf 338a 083c
00000200: d903 3ebf 17a2 90bf eae0 25bf 63a5 13bf
00000210: 436a 74bf 555a 68bf 0604 5fbf 924f 04bf
00000220: 7891 a5bf 748e 96be 181f 0dbf de82 8abf
00000230: 8238 ac3b 67a7 a7be d837 84bf 20df 88bf
00000240: 0168 15bf 3bcb e2be 46c9 6bbf 0f3b 3ebf
00000250: e3e2 debe 2937 aabf a739 11bf 4caf 88bf
00000260: ce4e 17bf 3e72 15bf cc94 653e 1d69 5cbf
00000270: 7eb0 ed3d 7288 18bf 91bc 26bf 9726 46bf
00000280: f866 453e 6120 293f b98b c33e fa27 79bf
00000290: 6956 a9bf 883b 2fbf 88ba 3dbf 1b81 11bf
000002a0: ce25 41bf d2b8 96bf 5cde 69be 10b7 7c3e
000002b0: 412e a8be e79a 5cbf 8513 9bbe 833b b4be
000002c0: 3f3c 05bf da28 60bf b299 9fbf 1189 c9be
000002d0: aaa1 1cbf ac18 afbf 278c b5bf 2e7b 16c0
000002e0: c22e 44bf 5ea0 7bbf a5fa abbc 73a5 9cbf
000002f0: fd1a d9be 56ac d7bd 88b1 fbbf ce71 22bf
00000300: 676e 72bf 3078 b23e ad39 ed3b 5100 06bd
00000310: d727 95bf c9fd 8dbe eb7d 1dbf 3c8e abbe
00000320: 3088 afbe a9ad 49bf 4eca 57bf 0c39 89be
00000330: ac9a 923e 69ae bdbf 1863 11bf 79e1 2bbf
00000340: 0912 88bf fa3a 89be 6b1a 9abe b86c f5be
00000350: 90c6 31bf 12ee 29be a14d 8bbf 6b98 5e3d
00000360: 1b80 a4bf d34e 3fbf 2b11 a5bf 1f3e 59bf
00000370: c0d4 44bf eac0 d1bf 270d f1be 6bb5 1fbf
00000380: 3fbd a4be 5c34 69bf 9084 98be 3e74 8abe
00000390: cbd8 f73d de7b 34bf 117a d5bd 7364 efbe
000003a0: 16a3 80bf 7697 1bbf a253 8ebe fec7 f93d
000003b0: 5ab1 3fbe 6794 dfbf 16d7 823f 0b90 42bf
000003c0: 5f6c 13bf fce9 f4be d94f 123e c4b6 82bf
000003d0: fd10 5abf 9037 13bf a734 7ebe 6122 8fbf
000003e0: 5e9e 2dbf 089e b9be 4e93 bdbf 5c75 fc3d
000003f0: 79e0 8bbe 8d2c 89bf 1b03 86bd 1279 b3bf

fc2.weight f4 [128, 260]
-0.033096533 -0.058226604 0.0053406516 -0.0977922 -0.086182214 -0.060437743 -0.009691536 -0.10954686
-0.05611092 -0.07275753 -0.04414079 -0.07980523 -0.010768269 -0.04639575 -0.049730357 0.0137871355
0.014838226 0.022695875 -0.073147245 -0.034036208 0.008043258 -0.043811817 -0.015117363 0.029557016
0.034829713 -0.118021466 -0.08501789 -0.07548519 -0.12077083 -0.021945763 -0.056400545 -0.07705851
0.028964866 -0.060100578 -0.019282063 -0.06070315 0.008809437 0.0035402824 0.03998747 0.00580664
-0.07513425 -0.08425787 -0.141193 -0.08347928 -0.013351282 0.026524246 0.05441597 0.054943126
-0.06887925 -0.053904593 -0.068885304 -0.050380927 0.01651822 -0.0054616616 0.011811207 -0.11053087
-0.14158352 -0.017722437 0.0041797394 0.042516842 -0.0046845167 -0.04982248 -0.024753245 0.07719299
0.032679733 -0.043132313 0.06067644 -0.09202576 -0.14064807 -0.06333235 -0.060587186 -0.046583086
-0.14033563 -0.056997877 -0.1256922 -0.028626563 0.00021034174 -0.027604202 -0.017409429 0.045725275
0.005311887 -0.02795369 -0.07449093 -0.018606171 -0.07455337 -0.1506607 0.004674534 -0.050152835
0.053430215 0.054019414 0.066089496 -0.04307087 -0.02610335 -0.049565762 -0.09356127 0.0038389175
-0.02373497 -0.05857934 0.017594224 -0.08200045 -0.07571263 0.021671714 -0.03033894 -0.06402528
0.014988409 -0.14515127 -0.111960076 -0.07403304 -0.03700405 -0.11508152 -0.06630132 -0.014339029
-0.026881946 -0.14751673 -0.016083498 -0.041810274 0.053311475 0.022350555 0.0072628353 -0.092709996
0.027598657 -0.05181917 -0.005459961 -0.13097708 -0.07942939 0.02698426 0.06828371 -0.11220337
0.034680318 -0.1297854 -0.025000904 -0.10745769 0.026056204 0.012799653 -0.010914217 0.0064684115
-0.06912692 -0.016256696 0.028006118 -0.050870866 -0.02486299 -0.029359257 0.016089616 -0.048045583
-0.065940104 0.017346732 -0.027752444 -0.065529905 0.038274825 0.03981371 -0.011693405 -0.091801554
-0.08107929 -0.02966518 0.036234938 -0.124241225 0.035412617 -0.024558632 0.006921184 -0.039788026
-0.02526074 -0.057877287 -0.119679935 -0.10287209 -0.0058591617 -0.053990353 -0.04437464 0.04059517
0.028646851 0.055364028 -0.06842154 0.087256774 -0.019511279 0.046777464 0.0166237 0.030032659
-0.082158566 -0.037753403 -0.0023652436 -0.09676849 -0.045227926 0.010354203 -0.09136968 0.017394774
0.042395525 -0.10931096 -0.022751655 -0.1513732 -0.05762221 0.063964136 -0.077300206 -0.060180165
0.034087807 -0.028715119 -0.09435261 -0.03236841 -0.07619301 0.043288473 -0.041360594 -0.083016604
-0.11777651 -0.030363975 -0.07493756 0.005792563 -0.03805933 0.0007495307 -0.019566027 0.0108184
0.029357292 0.009445571 -0.029600335 -0.015601104 0.07144974 -0.01640309 -0.072785884 -0.12210043
-0.023470297 -0.101804405 0.041655462 -0.063144155 -0.0477646 -0.01508546 -0.036231533 -0.06805729
-0.030147914 -0.014779036 -0.0737629 -0.071358345 -0.10078416 -0.05825797 -0.13501383 -0.026477298
0.03850525 -0.062549874 0.04967296 -0.05088623 -0.108879015 -0.07417189 -0.057871338 -0.0030413806
0.02756422 -0.08357293 -0.034802556 -0.05469375 0.0599793 -0.0037607504 -0.022257552 -0.093758695
-0.09400187 -0.055501975 0.0017506899 -0.04669416 0.020282215 0.06888087 -0.084672414 -0.03215706
00000000: 3b90 07bd 057f 6ebd a200 af3b 4747 c8bd
00000010: 4d80 b0bd 918d 77bd 40c9 1ebc 1b5a e0bd
00000020: 90d4 65bd e601 95bd f9cc 34bd ed70 a3bd
00000030: 656d 30bc 7809 3ebd 0fb2 4bbd 70e3 613c
00000040: 081c 733c b3ec b93c 39ce 95bd 8d69 0bbd
00000050: dfc7 033c 0574 33bd d1ae 77bc 8e21 f23c
00000060: 9aa9 0e3d 3db5 f1bd dc1d aebd fb97 9abd
00000070: b256 f7bd 9ac7 b3bc 4204 67bd dad0 9dbd
00000080: ba47 ed3c 062c 76bd 6bf5 9dbc dea3 78bd
00000090: 7555 103c 1504 683b e7c9 233d a045 be3b
000000a0: fcdf 99bd 648f acbd e694 10be 2ff7 aabd
000000b0: 56bf 5abc 6049 d93c 48e3 5e3d 0b0c 613d
000000c0: 9010 8dbd 10cb 5cbd bd13 8dbd 3b5c 4ebd
000000d0: 3851 873c bdf7 b2bb cb83 413c 025e e2bd
000000e0: 45fb 10be a52e 91bc 32f6 883b 2426 2e3d
000000f0: 9380 99bb a812 4cbd 51c7 cabc 5c17 9e3d
00000100: 2fdb 053d 82ab 30bd dc87 783d 0078 bcbd
00000110: 0c06 10be 64b4 81bd 452a 78bd e8cd 3ebd
00000120: 25b4 0fbe 9b76 69bd 75b5 00be 4182 eabc
00000130: 2e8f 5c39 3522 e2bc 389e 8ebc 6d4a 3b3d
00000140: 560f ae3b 23ff e4bc b38e 98bd f86b 98bc
00000150: 70af 98bd cc46 1abe d52c 993b 0f6d 4dbd
00000160: a4d9 5a3d 7643 5d3d ee59 873d 156b 30bd
00000170: b1d6 d5bc 7805 4bbd 0d9d bfbd 5996 7b3b
00000180: d76f c2bc e4f0 6fbd c321 903c daef a7bd
00000190: 390f 9bbd e188 b13c 5e89 f8bc b01f 83bd
000001a0: f291 753c 89a2 14be 534b e5bd a29e 97bd
000001b0: 8f91 17bd dcaf ebbd fdc8 87bd 3fee 6abc
000001c0: 8737 dcbc a00e 17be 8ac1 83bc 4041 2bbd
000001d0: 225d 5a3d 8318 b73c 14fd ed3b bdde bdbd
000001e0: 9416 e23c 5740 54bd 79e9 b2bb db1e 06be
000001f0: e0ab a2bd 180e dd3c 54d8 8b3d e1ca e5bd
00000200: f30c 0e3d 77e6 04be b2ce ccbc c712 dcbd
00000210: d273 d53c a3b5 513c 8bd1 32bc f8f4 d33b
00000220: 6a92 8dbd c32c 85bc 166d e53c f85d 50bd
00000230: 78ad cbbc d382 f0bc 5fce 833c 72cb 44bd
00000240: 9b0b 87bd bc1a 8e3c 1859 e3bc 8b34 86bd
00000250: 10c6 1c3d b313 233d b295 3fbc 7402 bcbd
00000260: e60c a6bd 6404 f3bc 166b 143d 2f72 febd
00000270: d20c 113d 2f2f c9bc 19cb e23b c5f8 22bd
00000280: 9def cebc bc10 6dbd c11a f5bd 9aae d2bd
00000290: 36fe bfbb fd24 5dbd 2fc2 35bd 1f47 263d
000002a0: cdac ea3c 64c5 623d 9820 8cbd aeb3 b23d
000002b0: 1ed6 9fbc ba99 3f3d 6d2e 883c 0d07 f63c
000002c0: c042 a8bd 50a3 1abd 3402 1bbb 8f2e c6bd
000002d0: eb40 39bd ada4 293c 0720 bbbd 7c7f 8e3c
000002e0: eea6 2d3d 6dde dfbd ae61 babc 9301 1bbe
000002f0: 4405 6cbd a1ff 823d 924f 9ebd 7a7f 76bd
00000300: a89f 0b3d f83b ebbc f13b c1bd bd94 04bd
00000310: 150b 9cbd 414f 313d ba69 29bd 9c04 aabd
00000320: d034 f1bd dfbd f8bc dd78 99bd 8acf bd3b
00000330: 1ae4 1bbd 277c 443a ef48 a0bc a93f 313c
00000340: b47e f03c 99c1 1a3c 677c f2bc c69b 7fbc
00000350: 3e54 923d c65f 86bc c410 95bd ca0f fabd
00000360: c844 c0bc d47e d0bd eb9e 2a3d b951 81bd
00000370: d0a4 43bd 0129 77bc 8467 14bd 9f61 8bbd
00000380: c2f8 f6bc c523 72bc 0111 97bd 5324 92bd
00000390: ed67 cebd e99f 6ebd 1141 0abe ebe6 d8bc
000003a0: aeb7 1d3d 261a 80bd e075 4b3d 146e 50bd
000003b0: f6fb debd 6fe7 97bd 7f0a 6dbd e651 47bb
000003c0: 5cce e13c 4928 abbd 208d 0ebd 8e06 60bd
000003d0: dbac 753d ec76 76bb 7855 b6bc 8f04 c0bd
000003e0: 0d84 c0bd 0a56 63bd 6877 e53a 6042 3fbd
000003f0: e326 a63c 6a11 8d3d bb68 adbd 1fb7 03bd

fc2.bias f4 [128]
-0.15805851 -0.15512143 -0.13666786 1.344574 -0.3345167 -0.07860035 -0.14807528 -0.07336926
-0.05958683 -0.22147447 -0.13948187 0.2952061 -0.20352195 -0.17192468 -0.21986583 -0.24786642
-0.090896495 -0.17644942 -0.11252473 -0.089408726 -0.19687496 -0.16391456 -0.17973228 -0.14846164
-0.16774833 -0.18507645 -0.18314719 -0.14210117 -0.17813006 -0.057883132 -0.11377641 -0.50829864
-0.10404359 -0.15456204 -0.22468239 -0.17991824 -0.06838992 -0.128226 -0.059449673 -0.20599726
-0.16145204 -0.120209694 -0.10444498 -0.09011487 0.10450412 -0.134756 -0.17882407 -0.10005822
-0.14400552 -0.22243787 -0.10838161 -0.12291089 -0.19981588 -0.83164114 -0.12137963 -0.15564506
-0.25526318 -0.14076519 -0.076877184 -0.12579125 -0.08197139 -0.18174607 -0.1058895 -0.13698602
-0.1793375 -0.15180258 -0.17552158 -0.1709986 -0.18167552 -0.108323246 -0.18500559 -0.15833178
-0.12611638 -0.16950233 -0.02053388 -0.13528714 -0.1642508 -0.050501 -0.19458145 -0.12352985
-0.0995406 -0.055504005 -0.11548086 -0.13297434 -0.23467919 0.08700384 -0.10555209 -0.09781634
2.1269212 -0.15929633 -0.13493054 -0.11051172 -0.16508076 -0.22606914 -0.20722605 -0.07479037
-0.097716495 -0.14211807 -0.17906336 -1.025561 -0.18111598 -0.072454385 -0.157195 -0.23028405
-0.09589212 -0.51439553 -0.17376567 -0.11108424 -0.07245758 -0.10387791 -0.30364534 -0.12323954
-0.13569082 -0.14089727 -0.2074139 -0.201179 0.114895456 -0.23452511 -0.22058475 -0.18045864
-0.03470718 -0.19256917 -0.06673036 -0.535492 -0.10589061 -0.085588865 -0.2079162 -0.16610093
00000000: 17da 21be 27d8 1ebe a9f2 0bbe 001b ac3f
00000010: c645 abbe 38f9 a0bd 0ca1 17be 9f42 96bd
00000020: 5211 74bd 34ca 62be 56d4 0ebe 4125 973e
00000030: 0f68 50be 060d 30be 8224 61be b2d0 7dbe
00000040: f127 babd 28af 34be 5e73 e6bd ec1b b7bd
00000050: 9799 49be 38d9 27be bd0b 38be 5406 18be
00000060: 38c6 2bbe ae84 3dbe f08a 3bbe f882 11be
00000070: ba67 36be dd16 6dbd 9b03 e9bd dc1f 02bf
00000080: ce14 d5bd 8345 1ebe 2413 66be 7d3c 38be
00000090: 0410 8cbd ad4d 03be 8081 73bd f2f0 52be
000000a0: af53 25be 8030 f6bd 40e7 d5bd 258e b8bd
000000b0: 4206 d63d 7afd 09be a81d 37be 53eb ccbd
000000c0: 2f76 13be c1c6 63be 2df7 ddbd b4b8 fbbd
000000d0: 899c 4cbe 6fe6 54bf e295 f8bd 6b61 1fbe
000000e0: dbb1 82be c024 10be c971 9dbd 6ccf 00be
000000f0: 9ee0 a7bd a41b 3abe 98dc d8bd 1046 0cbe
00000100: 40a4 37be 2372 1bbe eebb 33be 421a 2fbe
00000110: 2609 3abe 94d8 ddbd 1b72 3dbe ba21 22be
00000120: a724 01be 0592 2dbe ab36 a8bc b688 0abe
00000130: 5d31 28be 23da 4ebd 5c40 47be 38fd fcbd
00000140: f1db cbbd 2b58 63bd 3b81 ecbd 6d2a 08be
00000150: be4f 70be 122f b23d b22b d8bd ef53 c8bd
00000160: 7a1f 0840 941e 23be 3b2b 0abe f853 e2bd
00000170: ee0a 29be ab7e 67be 1133 54be b22b 99bd
00000180: 961f c8bd 6687 11be 635c 37be 9545 83bf
00000190: 7876 39be f762 94bd baf7 20be 95cf 6bbe
000001a0: 1663 c4bd 6daf 03bf a1ef 31be 2280 e3bd
000001b0: a464 94bd f1bd d4bd 6777 9bbe 0365 fcbd
000001c0: 89f2 0abe 6047 10be 4f64 54be de01 4ebe
000001d0: 4f4e eb3d 5a27 70be f8e0 61be 26ca 38be
000001e0: 1e29 0ebd da30 45be eda9 88bd 0116 09bf
000001f0: 2ddd d8bd 3749 afbd fce7 54be 5d16 2abe

fc3.weight f4 [1, 128]
0.0039715157 -0.028680539 -0.02651083 0.01126786 -0.030786594 0.017576152 0.007970319 0.005613848
-0.0024297722 -0.004099057 0.014039268 -0.0057824412 0.009273855 -0.0047272053 0.0153888 -0.008919015
0.025248174 0.02540497 -0.0039055338 0.009652671 0.014361044 -0.01260942 -0.014552355 0.012732784
0.01725754 -0.012834932 0.022118593 0.017766474 -0.024996094 0.020644438 0.00043756337 0.01377421
-0.0027594117 -0.013973735 0.0069455416 -0.028438589 -0.030210407 -0.020781433 0.005180557 -0.0035195865
-0.00840318 -0.019487668 0.01142676 -0.01083572 0.009000356 0.019913673 0.022659458 -0.027703535
-0.0055587785 -0.015226176 0.028185153 0.015006308 0.0064296704 -0.008125884 -0.010491019 0.022743914
-0.019254059 -0.014428431 0.020977125 -0.005381906 0.02738798 0.0008864421 -0.01344059 0.008948576
0.005614956 0.003590127 -0.017892553 0.017106386 0.021489691 0.001721375 -0.0003733333 -0.01603556
0.018403256 -0.001739515 0.0035103646 0.0027472097 -0.017707625 -0.0145775005 0.014169074 -0.005087491
-1.2747355e-05 0.024922423 0.015240001 -0.017598933 -0.0085789375 -0.0076748705 -0.03063264 -0.019530006
0.017359063 -0.011961598 -0.010934397 0.004115867 0.020884896 -0.004276941 -0.018133368 0.00394011
0.0051331115 -0.022314437 0.009348774 -0.0050588246 -0.027183333 0.009926086 -0.013266841 0.008704549
-0.016329676 -0.012147204 -0.003770756 0.031853642 0.021942243 -0.00319249 -0.01624613 -0.009693664
0.06226649 -0.021545209 0.01779439 -0.005374316 0.008203059 -0.004915576 -0.009988112 -0.0022507326
0.015896205 -0.022367116 -0.01587015 -0.013395354 -0.026930766 0.0043502417 0.017260192 0.0031498047
00000000: 7d23 823b 73f3 eabc 3d2d d9bc d59c 383c
00000010: 2b34 fcbc ddfb 8f3c f195 023c 5ff4 b73b
00000020: d03c 1fbb 6251 86bb f504 663c a27a bdbb
00000030: 5ef1 173c ace6 9abb 4e21 7c3c 0f21 12bc
00000040: 42d5 ce3c 151e d03c fcf3 7fbb 3d26 1e3c
00000050: 964a 6b3c be97 4ebc 006d 6ebc 2b9d 503c
00000060: af5f 8d3c 9b49 52bc 0d32 b53c ff8a 913c
00000070: 9cc4 ccbc 861e a93c c368 e539 39ad 613c
00000080: 3fd7 34bb 18f2 64bc 6d97 e33b 0bf8 e8bc
00000090: d17b f7bc d33d aabc a9c1 a93b dda8 66bb
000000a0: 7ead 09bc 9aa4 9fbc 4e37 3b3c 4e88 31bc
000000b0: 3b76 133c 0022 a33c 54a0 b93c 86f2 e2bc
000000c0: 6a26 b6bb 3677 79bc 8de4 e63c 05dd 753c
000000d0: fcaf d23b 6e22 05bc 86e2 2bbc 7251 ba3c
000000e0: b0ba 9dbc 3a65 6cbc 38d8 ab3c b35a b0bb
000000f0: c25c e03c 1f60 683a ec35 5cbc 0c9d 123c
00000100: aafd b73b 5648 6b3b 6793 92bc b122 8c3c
00000110: 260b b03c c39f e13a f3bb c3b9 025d 83bc
00000120: 6dc2 963c 7000 e4ba 250e 663b 880a 343b
00000130: 950f 91bc 78d6 6ebc 6725 683c f8b4 a6bb
00000140: 79dd 55b7 1c2a cc3c 32b1 793c a32b 90bc
00000150: ac8e 0cbc 7b7d fbbb 4df1 fabc 64fd 9fbc
00000160: 9834 8e3c 94fa 43bc 2f26 33bc 65de 863b
00000170: cd16 ab3c 9525 8cbb 6e8c 94bc 0a1c 813b
00000180: a933 a83b c4cc b6bc 9a2b 193c 7fc4 a5bb
00000190: 95af debc 06a1 223c 2a5d 59bc 869d 0e3c
000001a0: d0c5 85bc 1105 47bc ca1e 77bb f778 023d
000001b0: 38c0 b33c 1839 51bb 9b16 85bc 2cd2 1ebc
000001c0: 260b 7f3d 947f b0bc 8ac5 913c 081b b0bb
000001d0: 2066 063c d712 a1bb 2ea5 23bc 0781 13bb
000001e0: c238 823c 3e3b b7bc 1e02 82bc 3078 5bbc
000001f0: e99d dcbc 798c 8e3b 3f65 8d3c f46c 4e3b
